DownstreamEncoder(
  (st_encoder): STEncoder_classification(
    (gcn): Model(
      (data_bn): BatchNorm1d(150, eps=1e-05, momentum=0.1, affine=True, track_running_stats=True)
      (l1): TCN_GCN_unit(
        (gcn1): unit_gcn(
          (convs): ModuleList(
            (0-2): 3 x CTRGC(
              (conv1): Conv2d(3, 8, kernel_size=(1, 1), stride=(1, 1))
              (conv2): Conv2d(3, 8, kernel_size=(1, 1), stride=(1, 1))
              (conv3): Conv2d(3, 64, kernel_size=(1, 1), stride=(1, 1))
              (conv4): Conv2d(8, 64, kernel_size=(1, 1), stride=(1, 1))
              (tanh): Tanh()
            )
          )
          (down): Sequential(
            (0): Conv2d(3, 64, kernel_size=(1, 1), stride=(1, 1))
            (1): BatchNorm2d(64, eps=1e-05, momentum=0.1, affine=True, track_running_stats=True)
          )
          (bn): BatchNorm2d(64, eps=1e-05, momentum=0.1, affine=True, track_running_stats=True)
          (soft): Softmax(dim=-2)
          (relu): ReLU(inplace=True)
        )
        (tcn1): MultiScale_TemporalConv(
          (branches): ModuleList(
            (0): Sequential(
              (0): Conv2d(64, 16, kernel_size=(1, 1), stride=(1, 1))
              (1): BatchNorm2d(16, eps=1e-05, momentum=0.1, affine=True, track_running_stats=True)
              (2): ReLU(inplace=True)
              (3): TemporalConv(
                (conv): Conv2d(16, 16, kernel_size=(5, 1), stride=(1, 1), padding=(2, 0))
                (bn): BatchNorm2d(16, eps=1e-05, momentum=0.1, affine=True, track_running_stats=True)
              )
            )
            (1): Sequential(
              (0): Conv2d(64, 16, kernel_size=(1, 1), stride=(1, 1))
              (1): BatchNorm2d(16, eps=1e-05, momentum=0.1, affine=True, track_running_stats=True)
              (2): ReLU(inplace=True)
              (3): TemporalConv(
                (conv): Conv2d(16, 16, kernel_size=(5, 1), stride=(1, 1), padding=(4, 0), dilation=(2, 1))
                (bn): BatchNorm2d(16, eps=1e-05, momentum=0.1, affine=True, track_running_stats=True)
              )
            )
            (2): Sequential(
              (0): Conv2d(64, 16, kernel_size=(1, 1), stride=(1, 1))
              (1): BatchNorm2d(16, eps=1e-05, momentum=0.1, affine=True, track_running_stats=True)
              (2): ReLU(inplace=True)
              (3): MaxPool2d(kernel_size=(3, 1), stride=(1, 1), padding=(1, 0), dilation=1, ceil_mode=False)
              (4): BatchNorm2d(16, eps=1e-05, momentum=0.1, affine=True, track_running_stats=True)
            )
            (3): Sequential(
              (0): Conv2d(64, 16, kernel_size=(1, 1), stride=(1, 1))
              (1): BatchNorm2d(16, eps=1e-05, momentum=0.1, affine=True, track_running_stats=True)
            )
          )
        )
        (relu): ReLU(inplace=True)
      )
      (l2): TCN_GCN_unit(
        (gcn1): unit_gcn(
          (convs): ModuleList(
            (0-2): 3 x CTRGC(
              (conv1): Conv2d(64, 8, kernel_size=(1, 1), stride=(1, 1))
              (conv2): Conv2d(64, 8, kernel_size=(1, 1), stride=(1, 1))
              (conv3): Conv2d(64, 256, kernel_size=(1, 1), stride=(1, 1))
              (conv4): Conv2d(8, 256, kernel_size=(1, 1), stride=(1, 1))
              (tanh): Tanh()
            )
          )
          (down): Sequential(
            (0): Conv2d(64, 256, kernel_size=(1, 1), stride=(1, 1))
            (1): BatchNorm2d(256, eps=1e-05, momentum=0.1, affine=True, track_running_stats=True)
          )
          (bn): BatchNorm2d(256, eps=1e-05, momentum=0.1, affine=True, track_running_stats=True)
          (soft): Softmax(dim=-2)
          (relu): ReLU(inplace=True)
        )
        (tcn1): MultiScale_TemporalConv(
          (branches): ModuleList(
            (0): Sequential(
              (0): Conv2d(256, 64, kernel_size=(1, 1), stride=(1, 1))
              (1): BatchNorm2d(64, eps=1e-05, momentum=0.1, affine=True, track_running_stats=True)
              (2): ReLU(inplace=True)
              (3): TemporalConv(
                (conv): Conv2d(64, 64, kernel_size=(5, 1), stride=(1, 1), padding=(2, 0))
                (bn): BatchNorm2d(64, eps=1e-05, momentum=0.1, affine=True, track_running_stats=True)
              )
            )
            (1): Sequential(
              (0): Conv2d(256, 64, kernel_size=(1, 1), stride=(1, 1))
              (1): BatchNorm2d(64, eps=1e-05, momentum=0.1, affine=True, track_running_stats=True)
              (2): ReLU(inplace=True)
              (3): TemporalConv(
                (conv): Conv2d(64, 64, kernel_size=(5, 1), stride=(1, 1), padding=(4, 0), dilation=(2, 1))
                (bn): BatchNorm2d(64, eps=1e-05, momentum=0.1, affine=True, track_running_stats=True)
              )
            )
            (2): Sequential(
              (0): Conv2d(256, 64, kernel_size=(1, 1), stride=(1, 1))
              (1): BatchNorm2d(64, eps=1e-05, momentum=0.1, affine=True, track_running_stats=True)
              (2): ReLU(inplace=True)
              (3): MaxPool2d(kernel_size=(3, 1), stride=(1, 1), padding=(1, 0), dilation=1, ceil_mode=False)
              (4): BatchNorm2d(64, eps=1e-05, momentum=0.1, affine=True, track_running_stats=True)
            )
            (3): Sequential(
              (0): Conv2d(256, 64, kernel_size=(1, 1), stride=(1, 1))
              (1): BatchNorm2d(64, eps=1e-05, momentum=0.1, affine=True, track_running_stats=True)
            )
          )
        )
        (relu): ReLU(inplace=True)
        (residual): unit_tcn(
          (conv): Conv2d(64, 256, kernel_size=(1, 1), stride=(1, 1))
          (bn): BatchNorm2d(256, eps=1e-05, momentum=0.1, affine=True, track_running_stats=True)
          (relu): ReLU(inplace=True)
        )
      )
      (l3): TCN_GCN_unit(
        (gcn1): unit_gcn(
          (convs): ModuleList(
            (0-2): 3 x CTRGC(
              (conv1): Conv2d(256, 32, kernel_size=(1, 1), stride=(1, 1))
              (conv2): Conv2d(256, 32, kernel_size=(1, 1), stride=(1, 1))
              (conv3): Conv2d(256, 64, kernel_size=(1, 1), stride=(1, 1))
              (conv4): Conv2d(32, 64, kernel_size=(1, 1), stride=(1, 1))
              (tanh): Tanh()
            )
          )
          (down): Sequential(
            (0): Conv2d(256, 64, kernel_size=(1, 1), stride=(1, 1))
            (1): BatchNorm2d(64, eps=1e-05, momentum=0.1, affine=True, track_running_stats=True)
          )
          (bn): BatchNorm2d(64, eps=1e-05, momentum=0.1, affine=True, track_running_stats=True)
          (soft): Softmax(dim=-2)
          (relu): ReLU(inplace=True)
        )
        (tcn1): MultiScale_TemporalConv(
          (branches): ModuleList(
            (0): Sequential(
              (0): Conv2d(64, 16, kernel_size=(1, 1), stride=(1, 1))
              (1): BatchNorm2d(16, eps=1e-05, momentum=0.1, affine=True, track_running_stats=True)
              (2): ReLU(inplace=True)
              (3): TemporalConv(
                (conv): Conv2d(16, 16, kernel_size=(5, 1), stride=(1, 1), padding=(2, 0))
                (bn): BatchNorm2d(16, eps=1e-05, momentum=0.1, affine=True, track_running_stats=True)
              )
            )
            (1): Sequential(
              (0): Conv2d(64, 16, kernel_size=(1, 1), stride=(1, 1))
              (1): BatchNorm2d(16, eps=1e-05, momentum=0.1, affine=True, track_running_stats=True)
              (2): ReLU(inplace=True)
              (3): TemporalConv(
                (conv): Conv2d(16, 16, kernel_size=(5, 1), stride=(1, 1), padding=(4, 0), dilation=(2, 1))
                (bn): BatchNorm2d(16, eps=1e-05, momentum=0.1, affine=True, track_running_stats=True)
              )
            )
            (2): Sequential(
              (0): Conv2d(64, 16, kernel_size=(1, 1), stride=(1, 1))
              (1): BatchNorm2d(16, eps=1e-05, momentum=0.1, affine=True, track_running_stats=True)
              (2): ReLU(inplace=True)
              (3): MaxPool2d(kernel_size=(3, 1), stride=(1, 1), padding=(1, 0), dilation=1, ceil_mode=False)
              (4): BatchNorm2d(16, eps=1e-05, momentum=0.1, affine=True, track_running_stats=True)
            )
            (3): Sequential(
              (0): Conv2d(64, 16, kernel_size=(1, 1), stride=(1, 1))
              (1): BatchNorm2d(16, eps=1e-05, momentum=0.1, affine=True, track_running_stats=True)
            )
          )
        )
        (relu): ReLU(inplace=True)
        (residual): unit_tcn(
          (conv): Conv2d(256, 64, kernel_size=(1, 1), stride=(1, 1))
          (bn): BatchNorm2d(64, eps=1e-05, momentum=0.1, affine=True, track_running_stats=True)
          (relu): ReLU(inplace=True)
        )
      )
    )
    (t_embedding): Sequential(
      (0): Linear(in_features=3200, out_features=2048, bias=True)
      (1): LayerNorm((2048,), eps=1e-05, elementwise_affine=True)
      (2): ReLU(inplace=True)
      (3): Linear(in_features=2048, out_features=2048, bias=True)
    )
    (s_embedding): Sequential(
      (0): Linear(in_features=4096, out_features=2048, bias=True)
      (1): LayerNorm((2048,), eps=1e-05, elementwise_affine=True)
      (2): ReLU(inplace=True)
      (3): Linear(in_features=2048, out_features=2048, bias=True)
    )
    (sam): SAM(
      (linear): Linear(in_features=4096, out_features=2048, bias=True)
    )
    (t_encoder): TransformerEncoder(
      (layers): ModuleList(
        (0): TransformerEncoderLayer(
          (self_attn): MultiheadAttention(
            (out_proj): NonDynamicallyQuantizableLinear(in_features=2048, out_features=2048, bias=True)
          )
          (linear1): Linear(in_features=2048, out_features=2048, bias=True)
          (dropout): Dropout(p=0.1, inplace=False)
          (linear2): Linear(in_features=2048, out_features=2048, bias=True)
          (norm1): LayerNorm((2048,), eps=1e-05, elementwise_affine=True)
          (norm2): LayerNorm((2048,), eps=1e-05, elementwise_affine=True)
          (dropout1): Dropout(p=0.1, inplace=False)
          (dropout2): Dropout(p=0.1, inplace=False)
        )
      )
    )
    (tl_encoder): ModuleList(
      (0-3): 4 x TransformerEncoder(
        (layers): ModuleList(
          (0): TransformerEncoderLayer(
            (self_attn): MultiheadAttention(
              (out_proj): NonDynamicallyQuantizableLinear(in_features=2048, out_features=2048, bias=True)
            )
            (linear1): Linear(in_features=2048, out_features=2048, bias=True)
            (dropout): Dropout(p=0.1, inplace=False)
            (linear2): Linear(in_features=2048, out_features=2048, bias=True)
            (norm1): LayerNorm((2048,), eps=1e-05, elementwise_affine=True)
            (norm2): LayerNorm((2048,), eps=1e-05, elementwise_affine=True)
            (dropout1): Dropout(p=0.1, inplace=False)
            (dropout2): Dropout(p=0.1, inplace=False)
          )
        )
      )
    )
    (tl1_encoder): TransformerEncoder(
      (layers): ModuleList(
        (0): TransformerEncoderLayer(
          (self_attn): MultiheadAttention(
            (out_proj): NonDynamicallyQuantizableLinear(in_features=2048, out_features=2048, bias=True)
          )
          (linear1): Linear(in_features=2048, out_features=2048, bias=True)
          (dropout): Dropout(p=0.1, inplace=False)
          (linear2): Linear(in_features=2048, out_features=2048, bias=True)
          (norm1): LayerNorm((2048,), eps=1e-05, elementwise_affine=True)
          (norm2): LayerNorm((2048,), eps=1e-05, elementwise_affine=True)
          (dropout1): Dropout(p=0.1, inplace=False)
          (dropout2): Dropout(p=0.1, inplace=False)
        )
      )
    )
    (s_encoder): TransformerEncoder(
      (layers): ModuleList(
        (0): TransformerEncoderLayer(
          (self_attn): MultiheadAttention(
            (out_proj): NonDynamicallyQuantizableLinear(in_features=2048, out_features=2048, bias=True)
          )
          (linear1): Linear(in_features=2048, out_features=2048, bias=True)
          (dropout): Dropout(p=0.1, inplace=False)
          (linear2): Linear(in_features=2048, out_features=2048, bias=True)
          (norm1): LayerNorm((2048,), eps=1e-05, elementwise_affine=True)
          (norm2): LayerNorm((2048,), eps=1e-05, elementwise_affine=True)
          (dropout1): Dropout(p=0.1, inplace=False)
          (dropout2): Dropout(p=0.1, inplace=False)
        )
      )
    )
    (sl_encoder): ModuleList(
      (0-4): 5 x TransformerEncoder(
        (layers): ModuleList(
          (0): TransformerEncoderLayer(
            (self_attn): MultiheadAttention(
              (out_proj): NonDynamicallyQuantizableLinear(in_features=2048, out_features=2048, bias=True)
            )
            (linear1): Linear(in_features=2048, out_features=2048, bias=True)
            (dropout): Dropout(p=0.1, inplace=False)
            (linear2): Linear(in_features=2048, out_features=2048, bias=True)
            (norm1): LayerNorm((2048,), eps=1e-05, elementwise_affine=True)
            (norm2): LayerNorm((2048,), eps=1e-05, elementwise_affine=True)
            (dropout1): Dropout(p=0.1, inplace=False)
            (dropout2): Dropout(p=0.1, inplace=False)
          )
        )
      )
    )
    (sl1_encoder): TransformerEncoder(
      (layers): ModuleList(
        (0): TransformerEncoderLayer(
          (self_attn): MultiheadAttention(
            (out_proj): NonDynamicallyQuantizableLinear(in_features=2048, out_features=2048, bias=True)
          )
          (linear1): Linear(in_features=2048, out_features=2048, bias=True)
          (dropout): Dropout(p=0.1, inplace=False)
          (linear2): Linear(in_features=2048, out_features=2048, bias=True)
          (norm1): LayerNorm((2048,), eps=1e-05, elementwise_affine=True)
          (norm2): LayerNorm((2048,), eps=1e-05, elementwise_affine=True)
          (dropout1): Dropout(p=0.1, inplace=False)
          (dropout2): Dropout(p=0.1, inplace=False)
        )
      )
    )
  )
  (fc): Linear(in_features=8192, out_features=60, bias=True)
)
options {'t_input_size': 3200, 's_input_size': 4096, 'hidden_size': 2048, 'num_head': 16, 'num_class': 60} {'data_path': './data/NTU-RGB-D-60-0.1/xsub/train_data_joint.npy', 'label_path': './data/NTU-RGB-D-60-0.1/xsub/train_label.pkl', 'num_frame_path': './data/NTU-RGB-D-60-0.1/xsub/train_num_frame.npy', 'l_ratio': [0.95], 'input_size': 64, 'input_representation': 'joint'} {'data_path': './data/NTU-RGB-D-60-AGCN/xsub/val_data_joint.npy', 'label_path': './data/NTU-RGB-D-60-AGCN/xsub/val_label.pkl', 'num_frame_path': './data/NTU-RGB-D-60-AGCN/xsub/val_num_frame.npy', 'l_ratio': [0.95], 'input_size': 64, 'input_representation': 'joint'}
=> no checkpoint found at './checkpoints/ntu60_xsub_joint/teacher/checkpoint_0450.pth.tar'
Number of parameter: 360.02M
optimize parameters lr 0.002
DownstreamEncoder(
  (st_encoder): STEncoder_classification(
    (gcn): Model(
      (data_bn): BatchNorm1d(150, eps=1e-05, momentum=0.1, affine=True, track_running_stats=True)
      (l1): TCN_GCN_unit(
        (gcn1): unit_gcn(
          (convs): ModuleList(
            (0-2): 3 x CTRGC(
              (conv1): Conv2d(3, 8, kernel_size=(1, 1), stride=(1, 1))
              (conv2): Conv2d(3, 8, kernel_size=(1, 1), stride=(1, 1))
              (conv3): Conv2d(3, 64, kernel_size=(1, 1), stride=(1, 1))
              (conv4): Conv2d(8, 64, kernel_size=(1, 1), stride=(1, 1))
              (tanh): Tanh()
            )
          )
          (down): Sequential(
            (0): Conv2d(3, 64, kernel_size=(1, 1), stride=(1, 1))
            (1): BatchNorm2d(64, eps=1e-05, momentum=0.1, affine=True, track_running_stats=True)
          )
          (bn): BatchNorm2d(64, eps=1e-05, momentum=0.1, affine=True, track_running_stats=True)
          (soft): Softmax(dim=-2)
          (relu): ReLU(inplace=True)
        )
        (tcn1): MultiScale_TemporalConv(
          (branches): ModuleList(
            (0): Sequential(
              (0): Conv2d(64, 16, kernel_size=(1, 1), stride=(1, 1))
              (1): BatchNorm2d(16, eps=1e-05, momentum=0.1, affine=True, track_running_stats=True)
              (2): ReLU(inplace=True)
              (3): TemporalConv(
                (conv): Conv2d(16, 16, kernel_size=(5, 1), stride=(1, 1), padding=(2, 0))
                (bn): BatchNorm2d(16, eps=1e-05, momentum=0.1, affine=True, track_running_stats=True)
              )
            )
            (1): Sequential(
              (0): Conv2d(64, 16, kernel_size=(1, 1), stride=(1, 1))
              (1): BatchNorm2d(16, eps=1e-05, momentum=0.1, affine=True, track_running_stats=True)
              (2): ReLU(inplace=True)
              (3): TemporalConv(
                (conv): Conv2d(16, 16, kernel_size=(5, 1), stride=(1, 1), padding=(4, 0), dilation=(2, 1))
                (bn): BatchNorm2d(16, eps=1e-05, momentum=0.1, affine=True, track_running_stats=True)
              )
            )
            (2): Sequential(
              (0): Conv2d(64, 16, kernel_size=(1, 1), stride=(1, 1))
              (1): BatchNorm2d(16, eps=1e-05, momentum=0.1, affine=True, track_running_stats=True)
              (2): ReLU(inplace=True)
              (3): MaxPool2d(kernel_size=(3, 1), stride=(1, 1), padding=(1, 0), dilation=1, ceil_mode=False)
              (4): BatchNorm2d(16, eps=1e-05, momentum=0.1, affine=True, track_running_stats=True)
            )
            (3): Sequential(
              (0): Conv2d(64, 16, kernel_size=(1, 1), stride=(1, 1))
              (1): BatchNorm2d(16, eps=1e-05, momentum=0.1, affine=True, track_running_stats=True)
            )
          )
        )
        (relu): ReLU(inplace=True)
      )
      (l2): TCN_GCN_unit(
        (gcn1): unit_gcn(
          (convs): ModuleList(
            (0-2): 3 x CTRGC(
              (conv1): Conv2d(64, 8, kernel_size=(1, 1), stride=(1, 1))
              (conv2): Conv2d(64, 8, kernel_size=(1, 1), stride=(1, 1))
              (conv3): Conv2d(64, 256, kernel_size=(1, 1), stride=(1, 1))
              (conv4): Conv2d(8, 256, kernel_size=(1, 1), stride=(1, 1))
              (tanh): Tanh()
            )
          )
          (down): Sequential(
            (0): Conv2d(64, 256, kernel_size=(1, 1), stride=(1, 1))
            (1): BatchNorm2d(256, eps=1e-05, momentum=0.1, affine=True, track_running_stats=True)
          )
          (bn): BatchNorm2d(256, eps=1e-05, momentum=0.1, affine=True, track_running_stats=True)
          (soft): Softmax(dim=-2)
          (relu): ReLU(inplace=True)
        )
        (tcn1): MultiScale_TemporalConv(
          (branches): ModuleList(
            (0): Sequential(
              (0): Conv2d(256, 64, kernel_size=(1, 1), stride=(1, 1))
              (1): BatchNorm2d(64, eps=1e-05, momentum=0.1, affine=True, track_running_stats=True)
              (2): ReLU(inplace=True)
              (3): TemporalConv(
                (conv): Conv2d(64, 64, kernel_size=(5, 1), stride=(1, 1), padding=(2, 0))
                (bn): BatchNorm2d(64, eps=1e-05, momentum=0.1, affine=True, track_running_stats=True)
              )
            )
            (1): Sequential(
              (0): Conv2d(256, 64, kernel_size=(1, 1), stride=(1, 1))
              (1): BatchNorm2d(64, eps=1e-05, momentum=0.1, affine=True, track_running_stats=True)
              (2): ReLU(inplace=True)
              (3): TemporalConv(
                (conv): Conv2d(64, 64, kernel_size=(5, 1), stride=(1, 1), padding=(4, 0), dilation=(2, 1))
                (bn): BatchNorm2d(64, eps=1e-05, momentum=0.1, affine=True, track_running_stats=True)
              )
            )
            (2): Sequential(
              (0): Conv2d(256, 64, kernel_size=(1, 1), stride=(1, 1))
              (1): BatchNorm2d(64, eps=1e-05, momentum=0.1, affine=True, track_running_stats=True)
              (2): ReLU(inplace=True)
              (3): MaxPool2d(kernel_size=(3, 1), stride=(1, 1), padding=(1, 0), dilation=1, ceil_mode=False)
              (4): BatchNorm2d(64, eps=1e-05, momentum=0.1, affine=True, track_running_stats=True)
            )
            (3): Sequential(
              (0): Conv2d(256, 64, kernel_size=(1, 1), stride=(1, 1))
              (1): BatchNorm2d(64, eps=1e-05, momentum=0.1, affine=True, track_running_stats=True)
            )
          )
        )
        (relu): ReLU(inplace=True)
        (residual): unit_tcn(
          (conv): Conv2d(64, 256, kernel_size=(1, 1), stride=(1, 1))
          (bn): BatchNorm2d(256, eps=1e-05, momentum=0.1, affine=True, track_running_stats=True)
          (relu): ReLU(inplace=True)
        )
      )
      (l3): TCN_GCN_unit(
        (gcn1): unit_gcn(
          (convs): ModuleList(
            (0-2): 3 x CTRGC(
              (conv1): Conv2d(256, 32, kernel_size=(1, 1), stride=(1, 1))
              (conv2): Conv2d(256, 32, kernel_size=(1, 1), stride=(1, 1))
              (conv3): Conv2d(256, 64, kernel_size=(1, 1), stride=(1, 1))
              (conv4): Conv2d(32, 64, kernel_size=(1, 1), stride=(1, 1))
              (tanh): Tanh()
            )
          )
          (down): Sequential(
            (0): Conv2d(256, 64, kernel_size=(1, 1), stride=(1, 1))
            (1): BatchNorm2d(64, eps=1e-05, momentum=0.1, affine=True, track_running_stats=True)
          )
          (bn): BatchNorm2d(64, eps=1e-05, momentum=0.1, affine=True, track_running_stats=True)
          (soft): Softmax(dim=-2)
          (relu): ReLU(inplace=True)
        )
        (tcn1): MultiScale_TemporalConv(
          (branches): ModuleList(
            (0): Sequential(
              (0): Conv2d(64, 16, kernel_size=(1, 1), stride=(1, 1))
              (1): BatchNorm2d(16, eps=1e-05, momentum=0.1, affine=True, track_running_stats=True)
              (2): ReLU(inplace=True)
              (3): TemporalConv(
                (conv): Conv2d(16, 16, kernel_size=(5, 1), stride=(1, 1), padding=(2, 0))
                (bn): BatchNorm2d(16, eps=1e-05, momentum=0.1, affine=True, track_running_stats=True)
              )
            )
            (1): Sequential(
              (0): Conv2d(64, 16, kernel_size=(1, 1), stride=(1, 1))
              (1): BatchNorm2d(16, eps=1e-05, momentum=0.1, affine=True, track_running_stats=True)
              (2): ReLU(inplace=True)
              (3): TemporalConv(
                (conv): Conv2d(16, 16, kernel_size=(5, 1), stride=(1, 1), padding=(4, 0), dilation=(2, 1))
                (bn): BatchNorm2d(16, eps=1e-05, momentum=0.1, affine=True, track_running_stats=True)
              )
            )
            (2): Sequential(
              (0): Conv2d(64, 16, kernel_size=(1, 1), stride=(1, 1))
              (1): BatchNorm2d(16, eps=1e-05, momentum=0.1, affine=True, track_running_stats=True)
              (2): ReLU(inplace=True)
              (3): MaxPool2d(kernel_size=(3, 1), stride=(1, 1), padding=(1, 0), dilation=1, ceil_mode=False)
              (4): BatchNorm2d(16, eps=1e-05, momentum=0.1, affine=True, track_running_stats=True)
            )
            (3): Sequential(
              (0): Conv2d(64, 16, kernel_size=(1, 1), stride=(1, 1))
              (1): BatchNorm2d(16, eps=1e-05, momentum=0.1, affine=True, track_running_stats=True)
            )
          )
        )
        (relu): ReLU(inplace=True)
        (residual): unit_tcn(
          (conv): Conv2d(256, 64, kernel_size=(1, 1), stride=(1, 1))
          (bn): BatchNorm2d(64, eps=1e-05, momentum=0.1, affine=True, track_running_stats=True)
          (relu): ReLU(inplace=True)
        )
      )
    )
    (t_embedding): Sequential(
      (0): Linear(in_features=3200, out_features=512, bias=True)
      (1): LayerNorm((512,), eps=1e-05, elementwise_affine=True)
      (2): ReLU(inplace=True)
      (3): Linear(in_features=512, out_features=512, bias=True)
    )
    (s_embedding): Sequential(
      (0): Linear(in_features=4096, out_features=512, bias=True)
      (1): LayerNorm((512,), eps=1e-05, elementwise_affine=True)
      (2): ReLU(inplace=True)
      (3): Linear(in_features=512, out_features=512, bias=True)
    )
    (sam): SAM(
      (linear): Linear(in_features=1024, out_features=512, bias=True)
    )
    (t_encoder): TransformerEncoder(
      (layers): ModuleList(
        (0): TransformerEncoderLayer(
          (self_attn): MultiheadAttention(
            (out_proj): NonDynamicallyQuantizableLinear(in_features=512, out_features=512, bias=True)
          )
          (linear1): Linear(in_features=512, out_features=512, bias=True)
          (dropout): Dropout(p=0.1, inplace=False)
          (linear2): Linear(in_features=512, out_features=512, bias=True)
          (norm1): LayerNorm((512,), eps=1e-05, elementwise_affine=True)
          (norm2): LayerNorm((512,), eps=1e-05, elementwise_affine=True)
          (dropout1): Dropout(p=0.1, inplace=False)
          (dropout2): Dropout(p=0.1, inplace=False)
        )
      )
    )
    (tl_encoder): ModuleList(
      (0-3): 4 x TransformerEncoder(
        (layers): ModuleList(
          (0): TransformerEncoderLayer(
            (self_attn): MultiheadAttention(
              (out_proj): NonDynamicallyQuantizableLinear(in_features=512, out_features=512, bias=True)
            )
            (linear1): Linear(in_features=512, out_features=512, bias=True)
            (dropout): Dropout(p=0.1, inplace=False)
            (linear2): Linear(in_features=512, out_features=512, bias=True)
            (norm1): LayerNorm((512,), eps=1e-05, elementwise_affine=True)
            (norm2): LayerNorm((512,), eps=1e-05, elementwise_affine=True)
            (dropout1): Dropout(p=0.1, inplace=False)
            (dropout2): Dropout(p=0.1, inplace=False)
          )
        )
      )
    )
    (tl1_encoder): TransformerEncoder(
      (layers): ModuleList(
        (0): TransformerEncoderLayer(
          (self_attn): MultiheadAttention(
            (out_proj): NonDynamicallyQuantizableLinear(in_features=512, out_features=512, bias=True)
          )
          (linear1): Linear(in_features=512, out_features=512, bias=True)
          (dropout): Dropout(p=0.1, inplace=False)
          (linear2): Linear(in_features=512, out_features=512, bias=True)
          (norm1): LayerNorm((512,), eps=1e-05, elementwise_affine=True)
          (norm2): LayerNorm((512,), eps=1e-05, elementwise_affine=True)
          (dropout1): Dropout(p=0.1, inplace=False)
          (dropout2): Dropout(p=0.1, inplace=False)
        )
      )
    )
    (s_encoder): TransformerEncoder(
      (layers): ModuleList(
        (0): TransformerEncoderLayer(
          (self_attn): MultiheadAttention(
            (out_proj): NonDynamicallyQuantizableLinear(in_features=512, out_features=512, bias=True)
          )
          (linear1): Linear(in_features=512, out_features=512, bias=True)
          (dropout): Dropout(p=0.1, inplace=False)
          (linear2): Linear(in_features=512, out_features=512, bias=True)
          (norm1): LayerNorm((512,), eps=1e-05, elementwise_affine=True)
          (norm2): LayerNorm((512,), eps=1e-05, elementwise_affine=True)
          (dropout1): Dropout(p=0.1, inplace=False)
          (dropout2): Dropout(p=0.1, inplace=False)
        )
      )
    )
    (sl_encoder): ModuleList(
      (0-4): 5 x TransformerEncoder(
        (layers): ModuleList(
          (0): TransformerEncoderLayer(
            (self_attn): MultiheadAttention(
              (out_proj): NonDynamicallyQuantizableLinear(in_features=512, out_features=512, bias=True)
            )
            (linear1): Linear(in_features=512, out_features=512, bias=True)
            (dropout): Dropout(p=0.1, inplace=False)
            (linear2): Linear(in_features=512, out_features=512, bias=True)
            (norm1): LayerNorm((512,), eps=1e-05, elementwise_affine=True)
            (norm2): LayerNorm((512,), eps=1e-05, elementwise_affine=True)
            (dropout1): Dropout(p=0.1, inplace=False)
            (dropout2): Dropout(p=0.1, inplace=False)
          )
        )
      )
    )
    (sl1_encoder): TransformerEncoder(
      (layers): ModuleList(
        (0): TransformerEncoderLayer(
          (self_attn): MultiheadAttention(
            (out_proj): NonDynamicallyQuantizableLinear(in_features=512, out_features=512, bias=True)
          )
          (linear1): Linear(in_features=512, out_features=512, bias=True)
          (dropout): Dropout(p=0.1, inplace=False)
          (linear2): Linear(in_features=512, out_features=512, bias=True)
          (norm1): LayerNorm((512,), eps=1e-05, elementwise_affine=True)
          (norm2): LayerNorm((512,), eps=1e-05, elementwise_affine=True)
          (dropout1): Dropout(p=0.1, inplace=False)
          (dropout2): Dropout(p=0.1, inplace=False)
        )
      )
    )
  )
  (fc): Linear(in_features=2048, out_features=60, bias=True)
)
options {'t_input_size': 3200, 's_input_size': 4096, 'hidden_size': 512, 'num_head': 16, 'num_class': 60} {'data_path': './data/NTU-RGB-D-60-AGCN/xsub/train_data_joint.npy', 'label_path': './data/NTU-RGB-D-60-AGCN/xsub/train_label.pkl', 'num_frame_path': './data/NTU-RGB-D-60-AGCN/xsub/train_num_frame.npy', 'l_ratio': [0.95], 'input_size': 64, 'input_representation': 'joint'} {'data_path': './data/NTU-RGB-D-60-AGCN/xsub/val_data_joint.npy', 'label_path': './data/NTU-RGB-D-60-AGCN/xsub/val_label.pkl', 'num_frame_path': './data/NTU-RGB-D-60-AGCN/xsub/val_num_frame.npy', 'l_ratio': [0.95], 'input_size': 64, 'input_representation': 'joint'}
…
=> loading checkpoint './checkpoints_distill/ntu60_xsub_joint/checkpoint_0450.pth.tar'
message _IncompatibleKeys(missing_keys=['fc.weight', 'fc.bias'], unexpected_keys=['t_proj.weight', 't_proj.bias', 's_proj.weight', 's_proj.bias', 'sl_proj.weight', 'sl_proj.bias', 'tl_proj.weight', 'tl_proj.bias'])
=> loaded pre-trained model './checkpoints_distill/ntu60_xsub_joint/checkpoint_0450.pth.tar'
Number of parameter: 25.79M
optimize parameters lr 0.1
(40320, 3, 300, 25, 2) 40320 40320
l_ratio [0.95]
(16560, 3, 300, 25, 2) 16560 16560
l_ratio [0.95]
DownstreamEncoder(
  (st_encoder): STEncoder_classification(
    (gcn): Model(
      (data_bn): BatchNorm1d(150, eps=1e-05, momentum=0.1, affine=True, track_running_stats=True)
      (l1): TCN_GCN_unit(
        (gcn1): unit_gcn(
          (convs): ModuleList(
            (0-2): 3 x CTRGC(
              (conv1): Conv2d(3, 8, kernel_size=(1, 1), stride=(1, 1))
              (conv2): Conv2d(3, 8, kernel_size=(1, 1), stride=(1, 1))
              (conv3): Conv2d(3, 64, kernel_size=(1, 1), stride=(1, 1))
              (conv4): Conv2d(8, 64, kernel_size=(1, 1), stride=(1, 1))
              (tanh): Tanh()
            )
          )
          (down): Sequential(
            (0): Conv2d(3, 64, kernel_size=(1, 1), stride=(1, 1))
            (1): BatchNorm2d(64, eps=1e-05, momentum=0.1, affine=True, track_running_stats=True)
          )
          (bn): BatchNorm2d(64, eps=1e-05, momentum=0.1, affine=True, track_running_stats=True)
          (soft): Softmax(dim=-2)
          (relu): ReLU(inplace=True)
        )
        (tcn1): MultiScale_TemporalConv(
          (branches): ModuleList(
            (0): Sequential(
              (0): Conv2d(64, 16, kernel_size=(1, 1), stride=(1, 1))
              (1): BatchNorm2d(16, eps=1e-05, momentum=0.1, affine=True, track_running_stats=True)
              (2): ReLU(inplace=True)
              (3): TemporalConv(
                (conv): Conv2d(16, 16, kernel_size=(5, 1), stride=(1, 1), padding=(2, 0))
                (bn): BatchNorm2d(16, eps=1e-05, momentum=0.1, affine=True, track_running_stats=True)
              )
            )
            (1): Sequential(
              (0): Conv2d(64, 16, kernel_size=(1, 1), stride=(1, 1))
              (1): BatchNorm2d(16, eps=1e-05, momentum=0.1, affine=True, track_running_stats=True)
              (2): ReLU(inplace=True)
              (3): TemporalConv(
                (conv): Conv2d(16, 16, kernel_size=(5, 1), stride=(1, 1), padding=(4, 0), dilation=(2, 1))
                (bn): BatchNorm2d(16, eps=1e-05, momentum=0.1, affine=True, track_running_stats=True)
              )
            )
            (2): Sequential(
              (0): Conv2d(64, 16, kernel_size=(1, 1), stride=(1, 1))
              (1): BatchNorm2d(16, eps=1e-05, momentum=0.1, affine=True, track_running_stats=True)
              (2): ReLU(inplace=True)
              (3): MaxPool2d(kernel_size=(3, 1), stride=(1, 1), padding=(1, 0), dilation=1, ceil_mode=False)
              (4): BatchNorm2d(16, eps=1e-05, momentum=0.1, affine=True, track_running_stats=True)
            )
            (3): Sequential(
              (0): Conv2d(64, 16, kernel_size=(1, 1), stride=(1, 1))
              (1): BatchNorm2d(16, eps=1e-05, momentum=0.1, affine=True, track_running_stats=True)
            )
          )
        )
        (relu): ReLU(inplace=True)
      )
      (l2): TCN_GCN_unit(
        (gcn1): unit_gcn(
          (convs): ModuleList(
            (0-2): 3 x CTRGC(
              (conv1): Conv2d(64, 8, kernel_size=(1, 1), stride=(1, 1))
              (conv2): Conv2d(64, 8, kernel_size=(1, 1), stride=(1, 1))
              (conv3): Conv2d(64, 256, kernel_size=(1, 1), stride=(1, 1))
              (conv4): Conv2d(8, 256, kernel_size=(1, 1), stride=(1, 1))
              (tanh): Tanh()
            )
          )
          (down): Sequential(
            (0): Conv2d(64, 256, kernel_size=(1, 1), stride=(1, 1))
            (1): BatchNorm2d(256, eps=1e-05, momentum=0.1, affine=True, track_running_stats=True)
          )
          (bn): BatchNorm2d(256, eps=1e-05, momentum=0.1, affine=True, track_running_stats=True)
          (soft): Softmax(dim=-2)
          (relu): ReLU(inplace=True)
        )
        (tcn1): MultiScale_TemporalConv(
          (branches): ModuleList(
            (0): Sequential(
              (0): Conv2d(256, 64, kernel_size=(1, 1), stride=(1, 1))
              (1): BatchNorm2d(64, eps=1e-05, momentum=0.1, affine=True, track_running_stats=True)
              (2): ReLU(inplace=True)
              (3): TemporalConv(
                (conv): Conv2d(64, 64, kernel_size=(5, 1), stride=(1, 1), padding=(2, 0))
                (bn): BatchNorm2d(64, eps=1e-05, momentum=0.1, affine=True, track_running_stats=True)
              )
            )
            (1): Sequential(
              (0): Conv2d(256, 64, kernel_size=(1, 1), stride=(1, 1))
              (1): BatchNorm2d(64, eps=1e-05, momentum=0.1, affine=True, track_running_stats=True)
              (2): ReLU(inplace=True)
              (3): TemporalConv(
                (conv): Conv2d(64, 64, kernel_size=(5, 1), stride=(1, 1), padding=(4, 0), dilation=(2, 1))
                (bn): BatchNorm2d(64, eps=1e-05, momentum=0.1, affine=True, track_running_stats=True)
              )
            )
            (2): Sequential(
              (0): Conv2d(256, 64, kernel_size=(1, 1), stride=(1, 1))
              (1): BatchNorm2d(64, eps=1e-05, momentum=0.1, affine=True, track_running_stats=True)
              (2): ReLU(inplace=True)
              (3): MaxPool2d(kernel_size=(3, 1), stride=(1, 1), padding=(1, 0), dilation=1, ceil_mode=False)
              (4): BatchNorm2d(64, eps=1e-05, momentum=0.1, affine=True, track_running_stats=True)
            )
            (3): Sequential(
              (0): Conv2d(256, 64, kernel_size=(1, 1), stride=(1, 1))
              (1): BatchNorm2d(64, eps=1e-05, momentum=0.1, affine=True, track_running_stats=True)
            )
          )
        )
        (relu): ReLU(inplace=True)
        (residual): unit_tcn(
          (conv): Conv2d(64, 256, kernel_size=(1, 1), stride=(1, 1))
          (bn): BatchNorm2d(256, eps=1e-05, momentum=0.1, affine=True, track_running_stats=True)
          (relu): ReLU(inplace=True)
        )
      )
      (l3): TCN_GCN_unit(
        (gcn1): unit_gcn(
          (convs): ModuleList(
            (0-2): 3 x CTRGC(
              (conv1): Conv2d(256, 32, kernel_size=(1, 1), stride=(1, 1))
              (conv2): Conv2d(256, 32, kernel_size=(1, 1), stride=(1, 1))
              (conv3): Conv2d(256, 64, kernel_size=(1, 1), stride=(1, 1))
              (conv4): Conv2d(32, 64, kernel_size=(1, 1), stride=(1, 1))
              (tanh): Tanh()
            )
          )
          (down): Sequential(
            (0): Conv2d(256, 64, kernel_size=(1, 1), stride=(1, 1))
            (1): BatchNorm2d(64, eps=1e-05, momentum=0.1, affine=True, track_running_stats=True)
          )
          (bn): BatchNorm2d(64, eps=1e-05, momentum=0.1, affine=True, track_running_stats=True)
          (soft): Softmax(dim=-2)
          (relu): ReLU(inplace=True)
        )
        (tcn1): MultiScale_TemporalConv(
          (branches): ModuleList(
            (0): Sequential(
              (0): Conv2d(64, 16, kernel_size=(1, 1), stride=(1, 1))
              (1): BatchNorm2d(16, eps=1e-05, momentum=0.1, affine=True, track_running_stats=True)
              (2): ReLU(inplace=True)
              (3): TemporalConv(
                (conv): Conv2d(16, 16, kernel_size=(5, 1), stride=(1, 1), padding=(2, 0))
                (bn): BatchNorm2d(16, eps=1e-05, momentum=0.1, affine=True, track_running_stats=True)
              )
            )
            (1): Sequential(
              (0): Conv2d(64, 16, kernel_size=(1, 1), stride=(1, 1))
              (1): BatchNorm2d(16, eps=1e-05, momentum=0.1, affine=True, track_running_stats=True)
              (2): ReLU(inplace=True)
              (3): TemporalConv(
                (conv): Conv2d(16, 16, kernel_size=(5, 1), stride=(1, 1), padding=(4, 0), dilation=(2, 1))
                (bn): BatchNorm2d(16, eps=1e-05, momentum=0.1, affine=True, track_running_stats=True)
              )
            )
            (2): Sequential(
              (0): Conv2d(64, 16, kernel_size=(1, 1), stride=(1, 1))
              (1): BatchNorm2d(16, eps=1e-05, momentum=0.1, affine=True, track_running_stats=True)
              (2): ReLU(inplace=True)
              (3): MaxPool2d(kernel_size=(3, 1), stride=(1, 1), padding=(1, 0), dilation=1, ceil_mode=False)
              (4): BatchNorm2d(16, eps=1e-05, momentum=0.1, affine=True, track_running_stats=True)
            )
            (3): Sequential(
              (0): Conv2d(64, 16, kernel_size=(1, 1), stride=(1, 1))
              (1): BatchNorm2d(16, eps=1e-05, momentum=0.1, affine=True, track_running_stats=True)
            )
          )
        )
        (relu): ReLU(inplace=True)
        (residual): unit_tcn(
          (conv): Conv2d(256, 64, kernel_size=(1, 1), stride=(1, 1))
          (bn): BatchNorm2d(64, eps=1e-05, momentum=0.1, affine=True, track_running_stats=True)
          (relu): ReLU(inplace=True)
        )
      )
    )
    (t_embedding): Sequential(
      (0): Linear(in_features=3200, out_features=512, bias=True)
      (1): LayerNorm((512,), eps=1e-05, elementwise_affine=True)
      (2): ReLU(inplace=True)
      (3): Linear(in_features=512, out_features=512, bias=True)
    )
    (s_embedding): Sequential(
      (0): Linear(in_features=4096, out_features=512, bias=True)
      (1): LayerNorm((512,), eps=1e-05, elementwise_affine=True)
      (2): ReLU(inplace=True)
      (3): Linear(in_features=512, out_features=512, bias=True)
    )
    (sam): SAM(
      (linear): Linear(in_features=1024, out_features=512, bias=True)
    )
    (t_encoder): TransformerEncoder(
      (layers): ModuleList(
        (0): TransformerEncoderLayer(
          (self_attn): MultiheadAttention(
            (out_proj): NonDynamicallyQuantizableLinear(in_features=512, out_features=512, bias=True)
          )
          (linear1): Linear(in_features=512, out_features=512, bias=True)
          (dropout): Dropout(p=0.1, inplace=False)
          (linear2): Linear(in_features=512, out_features=512, bias=True)
          (norm1): LayerNorm((512,), eps=1e-05, elementwise_affine=True)
          (norm2): LayerNorm((512,), eps=1e-05, elementwise_affine=True)
          (dropout1): Dropout(p=0.1, inplace=False)
          (dropout2): Dropout(p=0.1, inplace=False)
        )
      )
    )
    (tl_encoder): ModuleList(
      (0-3): 4 x TransformerEncoder(
        (layers): ModuleList(
          (0): TransformerEncoderLayer(
            (self_attn): MultiheadAttention(
              (out_proj): NonDynamicallyQuantizableLinear(in_features=512, out_features=512, bias=True)
            )
            (linear1): Linear(in_features=512, out_features=512, bias=True)
            (dropout): Dropout(p=0.1, inplace=False)
            (linear2): Linear(in_features=512, out_features=512, bias=True)
            (norm1): LayerNorm((512,), eps=1e-05, elementwise_affine=True)
            (norm2): LayerNorm((512,), eps=1e-05, elementwise_affine=True)
            (dropout1): Dropout(p=0.1, inplace=False)
            (dropout2): Dropout(p=0.1, inplace=False)
          )
        )
      )
    )
    (tl1_encoder): TransformerEncoder(
      (layers): ModuleList(
        (0): TransformerEncoderLayer(
          (self_attn): MultiheadAttention(
            (out_proj): NonDynamicallyQuantizableLinear(in_features=512, out_features=512, bias=True)
          )
          (linear1): Linear(in_features=512, out_features=512, bias=True)
          (dropout): Dropout(p=0.1, inplace=False)
          (linear2): Linear(in_features=512, out_features=512, bias=True)
          (norm1): LayerNorm((512,), eps=1e-05, elementwise_affine=True)
          (norm2): LayerNorm((512,), eps=1e-05, elementwise_affine=True)
          (dropout1): Dropout(p=0.1, inplace=False)
          (dropout2): Dropout(p=0.1, inplace=False)
        )
      )
    )
    (s_encoder): TransformerEncoder(
      (layers): ModuleList(
        (0): TransformerEncoderLayer(
          (self_attn): MultiheadAttention(
            (out_proj): NonDynamicallyQuantizableLinear(in_features=512, out_features=512, bias=True)
          )
          (linear1): Linear(in_features=512, out_features=512, bias=True)
          (dropout): Dropout(p=0.1, inplace=False)
          (linear2): Linear(in_features=512, out_features=512, bias=True)
          (norm1): LayerNorm((512,), eps=1e-05, elementwise_affine=True)
          (norm2): LayerNorm((512,), eps=1e-05, elementwise_affine=True)
          (dropout1): Dropout(p=0.1, inplace=False)
          (dropout2): Dropout(p=0.1, inplace=False)
        )
      )
    )
    (sl_encoder): ModuleList(
      (0-4): 5 x TransformerEncoder(
        (layers): ModuleList(
          (0): TransformerEncoderLayer(
            (self_attn): MultiheadAttention(
              (out_proj): NonDynamicallyQuantizableLinear(in_features=512, out_features=512, bias=True)
            )
            (linear1): Linear(in_features=512, out_features=512, bias=True)
            (dropout): Dropout(p=0.1, inplace=False)
            (linear2): Linear(in_features=512, out_features=512, bias=True)
            (norm1): LayerNorm((512,), eps=1e-05, elementwise_affine=True)
            (norm2): LayerNorm((512,), eps=1e-05, elementwise_affine=True)
            (dropout1): Dropout(p=0.1, inplace=False)
            (dropout2): Dropout(p=0.1, inplace=False)
          )
        )
      )
    )
    (sl1_encoder): TransformerEncoder(
      (layers): ModuleList(
        (0): TransformerEncoderLayer(
          (self_attn): MultiheadAttention(
            (out_proj): NonDynamicallyQuantizableLinear(in_features=512, out_features=512, bias=True)
          )
          (linear1): Linear(in_features=512, out_features=512, bias=True)
          (dropout): Dropout(p=0.1, inplace=False)
          (linear2): Linear(in_features=512, out_features=512, bias=True)
          (norm1): LayerNorm((512,), eps=1e-05, elementwise_affine=True)
          (norm2): LayerNorm((512,), eps=1e-05, elementwise_affine=True)
          (dropout1): Dropout(p=0.1, inplace=False)
          (dropout2): Dropout(p=0.1, inplace=False)
        )
      )
    )
  )
  (fc): Linear(in_features=2048, out_features=60, bias=True)
)DownstreamEncoder(
  (st_encoder): STEncoder_classification(
    (gcn): Model(
      (data_bn): BatchNorm1d(150, eps=1e-05, momentum=0.1, affine=True, track_running_stats=True)
      (l1): TCN_GCN_unit(
        (gcn1): unit_gcn(
          (convs): ModuleList(
            (0-2): 3 x CTRGC(
              (conv1): Conv2d(3, 8, kernel_size=(1, 1), stride=(1, 1))
              (conv2): Conv2d(3, 8, kernel_size=(1, 1), stride=(1, 1))
              (conv3): Conv2d(3, 64, kernel_size=(1, 1), stride=(1, 1))
              (conv4): Conv2d(8, 64, kernel_size=(1, 1), stride=(1, 1))
              (tanh): Tanh()
            )
          )
          (down): Sequential(
            (0): Conv2d(3, 64, kernel_size=(1, 1), stride=(1, 1))
            (1): BatchNorm2d(64, eps=1e-05, momentum=0.1, affine=True, track_running_stats=True)
          )
          (bn): BatchNorm2d(64, eps=1e-05, momentum=0.1, affine=True, track_running_stats=True)
          (soft): Softmax(dim=-2)
          (relu): ReLU(inplace=True)
        )
        (tcn1): MultiScale_TemporalConv(
          (branches): ModuleList(
            (0): Sequential(
              (0): Conv2d(64, 16, kernel_size=(1, 1), stride=(1, 1))
              (1): BatchNorm2d(16, eps=1e-05, momentum=0.1, affine=True, track_running_stats=True)
              (2): ReLU(inplace=True)
              (3): TemporalConv(
                (conv): Conv2d(16, 16, kernel_size=(5, 1), stride=(1, 1), padding=(2, 0))
                (bn): BatchNorm2d(16, eps=1e-05, momentum=0.1, affine=True, track_running_stats=True)
              )
            )
            (1): Sequential(
              (0): Conv2d(64, 16, kernel_size=(1, 1), stride=(1, 1))
              (1): BatchNorm2d(16, eps=1e-05, momentum=0.1, affine=True, track_running_stats=True)
              (2): ReLU(inplace=True)
              (3): TemporalConv(
                (conv): Conv2d(16, 16, kernel_size=(5, 1), stride=(1, 1), padding=(4, 0), dilation=(2, 1))
                (bn): BatchNorm2d(16, eps=1e-05, momentum=0.1, affine=True, track_running_stats=True)
              )
            )
            (2): Sequential(
              (0): Conv2d(64, 16, kernel_size=(1, 1), stride=(1, 1))
              (1): BatchNorm2d(16, eps=1e-05, momentum=0.1, affine=True, track_running_stats=True)
              (2): ReLU(inplace=True)
              (3): MaxPool2d(kernel_size=(3, 1), stride=(1, 1), padding=(1, 0), dilation=1, ceil_mode=False)
              (4): BatchNorm2d(16, eps=1e-05, momentum=0.1, affine=True, track_running_stats=True)
            )
            (3): Sequential(
              (0): Conv2d(64, 16, kernel_size=(1, 1), stride=(1, 1))
              (1): BatchNorm2d(16, eps=1e-05, momentum=0.1, affine=True, track_running_stats=True)
            )
          )
        )
        (relu): ReLU(inplace=True)
      )
      (l2): TCN_GCN_unit(
        (gcn1): unit_gcn(
          (convs): ModuleList(
            (0-2): 3 x CTRGC(
              (conv1): Conv2d(64, 8, kernel_size=(1, 1), stride=(1, 1))
              (conv2): Conv2d(64, 8, kernel_size=(1, 1), stride=(1, 1))
              (conv3): Conv2d(64, 256, kernel_size=(1, 1), stride=(1, 1))
              (conv4): Conv2d(8, 256, kernel_size=(1, 1), stride=(1, 1))
              (tanh): Tanh()
            )
          )
          (down): Sequential(
            (0): Conv2d(64, 256, kernel_size=(1, 1), stride=(1, 1))
            (1): BatchNorm2d(256, eps=1e-05, momentum=0.1, affine=True, track_running_stats=True)
          )
          (bn): BatchNorm2d(256, eps=1e-05, momentum=0.1, affine=True, track_running_stats=True)
          (soft): Softmax(dim=-2)
          (relu): ReLU(inplace=True)
        )
        (tcn1): MultiScale_TemporalConv(
          (branches): ModuleList(
            (0): Sequential(
              (0): Conv2d(256, 64, kernel_size=(1, 1), stride=(1, 1))
              (1): BatchNorm2d(64, eps=1e-05, momentum=0.1, affine=True, track_running_stats=True)
              (2): ReLU(inplace=True)
              (3): TemporalConv(
                (conv): Conv2d(64, 64, kernel_size=(5, 1), stride=(1, 1), padding=(2, 0))
                (bn): BatchNorm2d(64, eps=1e-05, momentum=0.1, affine=True, track_running_stats=True)
              )
            )
            (1): Sequential(
              (0): Conv2d(256, 64, kernel_size=(1, 1), stride=(1, 1))
              (1): BatchNorm2d(64, eps=1e-05, momentum=0.1, affine=True, track_running_stats=True)
              (2): ReLU(inplace=True)
              (3): TemporalConv(
                (conv): Conv2d(64, 64, kernel_size=(5, 1), stride=(1, 1), padding=(4, 0), dilation=(2, 1))
                (bn): BatchNorm2d(64, eps=1e-05, momentum=0.1, affine=True, track_running_stats=True)
              )
            )
            (2): Sequential(
              (0): Conv2d(256, 64, kernel_size=(1, 1), stride=(1, 1))
              (1): BatchNorm2d(64, eps=1e-05, momentum=0.1, affine=True, track_running_stats=True)
              (2): ReLU(inplace=True)
              (3): MaxPool2d(kernel_size=(3, 1), stride=(1, 1), padding=(1, 0), dilation=1, ceil_mode=False)
              (4): BatchNorm2d(64, eps=1e-05, momentum=0.1, affine=True, track_running_stats=True)
            )
            (3): Sequential(
              (0): Conv2d(256, 64, kernel_size=(1, 1), stride=(1, 1))
              (1): BatchNorm2d(64, eps=1e-05, momentum=0.1, affine=True, track_running_stats=True)
            )
          )
        )
        (relu): ReLU(inplace=True)
        (residual): unit_tcn(
          (conv): Conv2d(64, 256, kernel_size=(1, 1), stride=(1, 1))
          (bn): BatchNorm2d(256, eps=1e-05, momentum=0.1, affine=True, track_running_stats=True)
          (relu): ReLU(inplace=True)
        )
      )
      (l3): TCN_GCN_unit(
        (gcn1): unit_gcn(
          (convs): ModuleList(
            (0-2): 3 x CTRGC(
              (conv1): Conv2d(256, 32, kernel_size=(1, 1), stride=(1, 1))
              (conv2): Conv2d(256, 32, kernel_size=(1, 1), stride=(1, 1))
              (conv3): Conv2d(256, 64, kernel_size=(1, 1), stride=(1, 1))
              (conv4): Conv2d(32, 64, kernel_size=(1, 1), stride=(1, 1))
              (tanh): Tanh()
            )
          )
          (down): Sequential(
            (0): Conv2d(256, 64, kernel_size=(1, 1), stride=(1, 1))
            (1): BatchNorm2d(64, eps=1e-05, momentum=0.1, affine=True, track_running_stats=True)
          )
          (bn): BatchNorm2d(64, eps=1e-05, momentum=0.1, affine=True, track_running_stats=True)
          (soft): Softmax(dim=-2)
          (relu): ReLU(inplace=True)
        )
        (tcn1): MultiScale_TemporalConv(
          (branches): ModuleList(
            (0): Sequential(
              (0): Conv2d(64, 16, kernel_size=(1, 1), stride=(1, 1))
              (1): BatchNorm2d(16, eps=1e-05, momentum=0.1, affine=True, track_running_stats=True)
              (2): ReLU(inplace=True)
              (3): TemporalConv(
                (conv): Conv2d(16, 16, kernel_size=(5, 1), stride=(1, 1), padding=(2, 0))
                (bn): BatchNorm2d(16, eps=1e-05, momentum=0.1, affine=True, track_running_stats=True)
              )
            )
            (1): Sequential(
              (0): Conv2d(64, 16, kernel_size=(1, 1), stride=(1, 1))
              (1): BatchNorm2d(16, eps=1e-05, momentum=0.1, affine=True, track_running_stats=True)
              (2): ReLU(inplace=True)
              (3): TemporalConv(
                (conv): Conv2d(16, 16, kernel_size=(5, 1), stride=(1, 1), padding=(4, 0), dilation=(2, 1))
                (bn): BatchNorm2d(16, eps=1e-05, momentum=0.1, affine=True, track_running_stats=True)
              )
            )
            (2): Sequential(
              (0): Conv2d(64, 16, kernel_size=(1, 1), stride=(1, 1))
              (1): BatchNorm2d(16, eps=1e-05, momentum=0.1, affine=True, track_running_stats=True)
              (2): ReLU(inplace=True)
              (3): MaxPool2d(kernel_size=(3, 1), stride=(1, 1), padding=(1, 0), dilation=1, ceil_mode=False)
              (4): BatchNorm2d(16, eps=1e-05, momentum=0.1, affine=True, track_running_stats=True)
            )
            (3): Sequential(
              (0): Conv2d(64, 16, kernel_size=(1, 1), stride=(1, 1))
              (1): BatchNorm2d(16, eps=1e-05, momentum=0.1, affine=True, track_running_stats=True)
            )
          )
        )
        (relu): ReLU(inplace=True)
        (residual): unit_tcn(
          (conv): Conv2d(256, 64, kernel_size=(1, 1), stride=(1, 1))
          (bn): BatchNorm2d(64, eps=1e-05, momentum=0.1, affine=True, track_running_stats=True)
          (relu): ReLU(inplace=True)
        )
      )
    )
    (t_embedding): Sequential(
      (0): Linear(in_features=3200, out_features=512, bias=True)
      (1): LayerNorm((512,), eps=1e-05, elementwise_affine=True)
      (2): ReLU(inplace=True)
      (3): Linear(in_features=512, out_features=512, bias=True)
    )
    (s_embedding): Sequential(
      (0): Linear(in_features=4096, out_features=512, bias=True)
      (1): LayerNorm((512,), eps=1e-05, elementwise_affine=True)
      (2): ReLU(inplace=True)
      (3): Linear(in_features=512, out_features=512, bias=True)
    )
    (sam): SAM(
      (linear): Linear(in_features=1024, out_features=512, bias=True)
    )
    (t_encoder): TransformerEncoder(
      (layers): ModuleList(
        (0): TransformerEncoderLayer(
          (self_attn): MultiheadAttention(
            (out_proj): NonDynamicallyQuantizableLinear(in_features=512, out_features=512, bias=True)
          )
          (linear1): Linear(in_features=512, out_features=512, bias=True)
          (dropout): Dropout(p=0.1, inplace=False)
          (linear2): Linear(in_features=512, out_features=512, bias=True)
          (norm1): LayerNorm((512,), eps=1e-05, elementwise_affine=True)
          (norm2): LayerNorm((512,), eps=1e-05, elementwise_affine=True)
          (dropout1): Dropout(p=0.1, inplace=False)
          (dropout2): Dropout(p=0.1, inplace=False)
        )
      )
    )
    (tl_encoder): ModuleList(
      (0-3): 4 x TransformerEncoder(
        (layers): ModuleList(
          (0): TransformerEncoderLayer(
            (self_attn): MultiheadAttention(
              (out_proj): NonDynamicallyQuantizableLinear(in_features=512, out_features=512, bias=True)
            )
            (linear1): Linear(in_features=512, out_features=512, bias=True)
            (dropout): Dropout(p=0.1, inplace=False)
            (linear2): Linear(in_features=512, out_features=512, bias=True)
            (norm1): LayerNorm((512,), eps=1e-05, elementwise_affine=True)
            (norm2): LayerNorm((512,), eps=1e-05, elementwise_affine=True)
            (dropout1): Dropout(p=0.1, inplace=False)
            (dropout2): Dropout(p=0.1, inplace=False)
          )
        )
      )
    )
    (tl1_encoder): TransformerEncoder(
      (layers): ModuleList(
        (0): TransformerEncoderLayer(
          (self_attn): MultiheadAttention(
            (out_proj): NonDynamicallyQuantizableLinear(in_features=512, out_features=512, bias=True)
          )
          (linear1): Linear(in_features=512, out_features=512, bias=True)
          (dropout): Dropout(p=0.1, inplace=False)
          (linear2): Linear(in_features=512, out_features=512, bias=True)
          (norm1): LayerNorm((512,), eps=1e-05, elementwise_affine=True)
          (norm2): LayerNorm((512,), eps=1e-05, elementwise_affine=True)
          (dropout1): Dropout(p=0.1, inplace=False)
          (dropout2): Dropout(p=0.1, inplace=False)
        )
      )
    )
    (s_encoder): TransformerEncoder(
      (layers): ModuleList(
        (0): TransformerEncoderLayer(
          (self_attn): MultiheadAttention(
            (out_proj): NonDynamicallyQuantizableLinear(in_features=512, out_features=512, bias=True)
          )
          (linear1): Linear(in_features=512, out_features=512, bias=True)
          (dropout): Dropout(p=0.1, inplace=False)
          (linear2): Linear(in_features=512, out_features=512, bias=True)
          (norm1): LayerNorm((512,), eps=1e-05, elementwise_affine=True)
          (norm2): LayerNorm((512,), eps=1e-05, elementwise_affine=True)
          (dropout1): Dropout(p=0.1, inplace=False)
          (dropout2): Dropout(p=0.1, inplace=False)
        )
      )
    )
    (sl_encoder): ModuleList(
      (0-4): 5 x TransformerEncoder(
        (layers): ModuleList(
          (0): TransformerEncoderLayer(
            (self_attn): MultiheadAttention(
              (out_proj): NonDynamicallyQuantizableLinear(in_features=512, out_features=512, bias=True)
            )
            (linear1): Linear(in_features=512, out_features=512, bias=True)
            (dropout): Dropout(p=0.1, inplace=False)
            (linear2): Linear(in_features=512, out_features=512, bias=True)
            (norm1): LayerNorm((512,), eps=1e-05, elementwise_affine=True)
            (norm2): LayerNorm((512,), eps=1e-05, elementwise_affine=True)
            (dropout1): Dropout(p=0.1, inplace=False)
            (dropout2): Dropout(p=0.1, inplace=False)
          )
        )
      )
    )
    (sl1_encoder): TransformerEncoder(
      (layers): ModuleList(
        (0): TransformerEncoderLayer(
          (self_attn): MultiheadAttention(
            (out_proj): NonDynamicallyQuantizableLinear(in_features=512, out_features=512, bias=True)
          )
          (linear1): Linear(in_features=512, out_features=512, bias=True)
          (dropout): Dropout(p=0.1, inplace=False)
          (linear2): Linear(in_features=512, out_features=512, bias=True)
          (norm1): LayerNorm((512,), eps=1e-05, elementwise_affine=True)
          (norm2): LayerNorm((512,), eps=1e-05, elementwise_affine=True)
          (dropout1): Dropout(p=0.1, inplace=False)
          (dropout2): Dropout(p=0.1, inplace=False)
        )
      )
    )
  )
  (fc): Linear(in_features=2048, out_features=60, bias=True)
)
options {'t_input_size': 3200, 's_input_size': 4096, 'hidden_size': 512, 'num_head': 16, 'num_class': 60} {'data_path': './data/NTU-RGB-D-60-AGCN/xsub/train_data_joint.npy', 'label_path': './data/NTU-RGB-D-60-AGCN/xsub/train_label.pkl', 'num_frame_path': './data/NTU-RGB-D-60-AGCN/xsub/train_num_frame.npy', 'l_ratio': [0.95], 'input_size': 64, 'input_representation': 'joint'} {'data_path': './data/NTU-RGB-D-60-AGCN/xsub/val_data_joint.npy', 'label_path': './data/NTU-RGB-D-60-AGCN/xsub/val_label.pkl', 'num_frame_path': './data/NTU-RGB-D-60-AGCN/xsub/val_num_frame.npy', 'l_ratio': [0.95], 'input_size': 64, 'input_representation': 'joint'}
…
options {'t_input_size': 3200, 's_input_size': 4096, 'hidden_size': 512, 'num_head': 16, 'num_class': 60} {'data_path': './data/NTU-RGB-D-60-AGCN/xsub/train_data_joint.npy', 'label_path': './data/NTU-RGB-D-60-AGCN/xsub/train_label.pkl', 'num_frame_path': './data/NTU-RGB-D-60-AGCN/xsub/train_num_frame.npy', 'l_ratio': [0.95], 'input_size': 64, 'input_representation': 'joint'} {'data_path': './data/NTU-RGB-D-60-AGCN/xsub/val_data_joint.npy', 'label_path': './data/NTU-RGB-D-60-AGCN/xsub/val_label.pkl', 'num_frame_path': './data/NTU-RGB-D-60-AGCN/xsub/val_num_frame.npy', 'l_ratio': [0.95], 'input_size': 64, 'input_representation': 'joint'}
params fc.weight
params fc.bias
=> loading checkpoint './checkpoints_distill/ntu60_xsub_joint/checkpoint_0450.pth.tar'
DownstreamEncoder(
  (st_encoder): STEncoder_classification(
    (gcn): Model(
      (data_bn): BatchNorm1d(150, eps=1e-05, momentum=0.1, affine=True, track_running_stats=True)
      (l1): TCN_GCN_unit(
        (gcn1): unit_gcn(
          (convs): ModuleList(
            (0-2): 3 x CTRGC(
              (conv1): Conv2d(3, 8, kernel_size=(1, 1), stride=(1, 1))
              (conv2): Conv2d(3, 8, kernel_size=(1, 1), stride=(1, 1))
              (conv3): Conv2d(3, 64, kernel_size=(1, 1), stride=(1, 1))
              (conv4): Conv2d(8, 64, kernel_size=(1, 1), stride=(1, 1))
              (tanh): Tanh()
            )
          )
          (down): Sequential(
            (0): Conv2d(3, 64, kernel_size=(1, 1), stride=(1, 1))
            (1): BatchNorm2d(64, eps=1e-05, momentum=0.1, affine=True, track_running_stats=True)
          )
          (bn): BatchNorm2d(64, eps=1e-05, momentum=0.1, affine=True, track_running_stats=True)
          (soft): Softmax(dim=-2)
          (relu): ReLU(inplace=True)
        )
        (tcn1): MultiScale_TemporalConv(
          (branches): ModuleList(
            (0): Sequential(
              (0): Conv2d(64, 16, kernel_size=(1, 1), stride=(1, 1))
              (1): BatchNorm2d(16, eps=1e-05, momentum=0.1, affine=True, track_running_stats=True)
              (2): ReLU(inplace=True)
              (3): TemporalConv(
                (conv): Conv2d(16, 16, kernel_size=(5, 1), stride=(1, 1), padding=(2, 0))
                (bn): BatchNorm2d(16, eps=1e-05, momentum=0.1, affine=True, track_running_stats=True)
              )
            )
            (1): Sequential(
              (0): Conv2d(64, 16, kernel_size=(1, 1), stride=(1, 1))
              (1): BatchNorm2d(16, eps=1e-05, momentum=0.1, affine=True, track_running_stats=True)
              (2): ReLU(inplace=True)
              (3): TemporalConv(
                (conv): Conv2d(16, 16, kernel_size=(5, 1), stride=(1, 1), padding=(4, 0), dilation=(2, 1))
                (bn): BatchNorm2d(16, eps=1e-05, momentum=0.1, affine=True, track_running_stats=True)
              )
            )
            (2): Sequential(
              (0): Conv2d(64, 16, kernel_size=(1, 1), stride=(1, 1))
              (1): BatchNorm2d(16, eps=1e-05, momentum=0.1, affine=True, track_running_stats=True)
              (2): ReLU(inplace=True)
              (3): MaxPool2d(kernel_size=(3, 1), stride=(1, 1), padding=(1, 0), dilation=1, ceil_mode=False)
              (4): BatchNorm2d(16, eps=1e-05, momentum=0.1, affine=True, track_running_stats=True)
            )
            (3): Sequential(
              (0): Conv2d(64, 16, kernel_size=(1, 1), stride=(1, 1))
              (1): BatchNorm2d(16, eps=1e-05, momentum=0.1, affine=True, track_running_stats=True)
            )
          )
        )
        (relu): ReLU(inplace=True)
      )
      (l2): TCN_GCN_unit(
        (gcn1): unit_gcn(
          (convs): ModuleList(
            (0-2): 3 x CTRGC(
              (conv1): Conv2d(64, 8, kernel_size=(1, 1), stride=(1, 1))
              (conv2): Conv2d(64, 8, kernel_size=(1, 1), stride=(1, 1))
              (conv3): Conv2d(64, 64, kernel_size=(1, 1), stride=(1, 1))
              (conv4): Conv2d(8, 64, kernel_size=(1, 1), stride=(1, 1))
              (tanh): Tanh()
            )
          )
          (bn): BatchNorm2d(64, eps=1e-05, momentum=0.1, affine=True, track_running_stats=True)
          (soft): Softmax(dim=-2)
          (relu): ReLU(inplace=True)
        )
        (tcn1): MultiScale_TemporalConv(
          (branches): ModuleList(
            (0): Sequential(
              (0): Conv2d(64, 16, kernel_size=(1, 1), stride=(1, 1))
              (1): BatchNorm2d(16, eps=1e-05, momentum=0.1, affine=True, track_running_stats=True)
              (2): ReLU(inplace=True)
              (3): TemporalConv(
                (conv): Conv2d(16, 16, kernel_size=(5, 1), stride=(1, 1), padding=(2, 0))
                (bn): BatchNorm2d(16, eps=1e-05, momentum=0.1, affine=True, track_running_stats=True)
              )
            )
            (1): Sequential(
              (0): Conv2d(64, 16, kernel_size=(1, 1), stride=(1, 1))
              (1): BatchNorm2d(16, eps=1e-05, momentum=0.1, affine=True, track_running_stats=True)
              (2): ReLU(inplace=True)
              (3): TemporalConv(
                (conv): Conv2d(16, 16, kernel_size=(5, 1), stride=(1, 1), padding=(4, 0), dilation=(2, 1))
                (bn): BatchNorm2d(16, eps=1e-05, momentum=0.1, affine=True, track_running_stats=True)
              )
            )
            (2): Sequential(
              (0): Conv2d(64, 16, kernel_size=(1, 1), stride=(1, 1))
              (1): BatchNorm2d(16, eps=1e-05, momentum=0.1, affine=True, track_running_stats=True)
              (2): ReLU(inplace=True)
              (3): MaxPool2d(kernel_size=(3, 1), stride=(1, 1), padding=(1, 0), dilation=1, ceil_mode=False)
              (4): BatchNorm2d(16, eps=1e-05, momentum=0.1, affine=True, track_running_stats=True)
            )
            (3): Sequential(
              (0): Conv2d(64, 16, kernel_size=(1, 1), stride=(1, 1))
              (1): BatchNorm2d(16, eps=1e-05, momentum=0.1, affine=True, track_running_stats=True)
            )
          )
        )
        (relu): ReLU(inplace=True)
      )
    )
    (t_embedding): Sequential(
      (0): Linear(in_features=3200, out_features=512, bias=True)
      (1): LayerNorm((512,), eps=1e-05, elementwise_affine=True)
      (2): ReLU(inplace=True)
      (3): Linear(in_features=512, out_features=512, bias=True)
    )
    (s_embedding): Sequential(
      (0): Linear(in_features=4096, out_features=512, bias=True)
      (1): LayerNorm((512,), eps=1e-05, elementwise_affine=True)
      (2): ReLU(inplace=True)
      (3): Linear(in_features=512, out_features=512, bias=True)
    )
    (sam): SAM(
      (linear): Linear(in_features=1024, out_features=512, bias=True)
    )
    (t_encoder): TransformerEncoder(
      (layers): ModuleList(
        (0): TransformerEncoderLayer(
          (self_attn): MultiheadAttention(
            (out_proj): NonDynamicallyQuantizableLinear(in_features=512, out_features=512, bias=True)
          )
          (linear1): Linear(in_features=512, out_features=512, bias=True)
          (dropout): Dropout(p=0.1, inplace=False)
          (linear2): Linear(in_features=512, out_features=512, bias=True)
          (norm1): LayerNorm((512,), eps=1e-05, elementwise_affine=True)
          (norm2): LayerNorm((512,), eps=1e-05, elementwise_affine=True)
          (dropout1): Dropout(p=0.1, inplace=False)
          (dropout2): Dropout(p=0.1, inplace=False)
        )
      )
    )
    (tl_encoder): ModuleList(
      (0-3): 4 x TransformerEncoder(
        (layers): ModuleList(
          (0): TransformerEncoderLayer(
            (self_attn): MultiheadAttention(
              (out_proj): NonDynamicallyQuantizableLinear(in_features=512, out_features=512, bias=True)
            )
            (linear1): Linear(in_features=512, out_features=512, bias=True)
            (dropout): Dropout(p=0.1, inplace=False)
            (linear2): Linear(in_features=512, out_features=512, bias=True)
            (norm1): LayerNorm((512,), eps=1e-05, elementwise_affine=True)
            (norm2): LayerNorm((512,), eps=1e-05, elementwise_affine=True)
            (dropout1): Dropout(p=0.1, inplace=False)
            (dropout2): Dropout(p=0.1, inplace=False)
          )
        )
      )
    )
    (tl1_encoder): TransformerEncoder(
      (layers): ModuleList(
        (0): TransformerEncoderLayer(
          (self_attn): MultiheadAttention(
            (out_proj): NonDynamicallyQuantizableLinear(in_features=512, out_features=512, bias=True)
          )
          (linear1): Linear(in_features=512, out_features=512, bias=True)
          (dropout): Dropout(p=0.1, inplace=False)
          (linear2): Linear(in_features=512, out_features=512, bias=True)
          (norm1): LayerNorm((512,), eps=1e-05, elementwise_affine=True)
          (norm2): LayerNorm((512,), eps=1e-05, elementwise_affine=True)
          (dropout1): Dropout(p=0.1, inplace=False)
          (dropout2): Dropout(p=0.1, inplace=False)
        )
      )
    )
    (s_encoder): TransformerEncoder(
      (layers): ModuleList(
        (0): TransformerEncoderLayer(
          (self_attn): MultiheadAttention(
            (out_proj): NonDynamicallyQuantizableLinear(in_features=512, out_features=512, bias=True)
          )
          (linear1): Linear(in_features=512, out_features=512, bias=True)
          (dropout): Dropout(p=0.1, inplace=False)
          (linear2): Linear(in_features=512, out_features=512, bias=True)
          (norm1): LayerNorm((512,), eps=1e-05, elementwise_affine=True)
          (norm2): LayerNorm((512,), eps=1e-05, elementwise_affine=True)
          (dropout1): Dropout(p=0.1, inplace=False)
          (dropout2): Dropout(p=0.1, inplace=False)
        )
      )
    )
    (sl_encoder): ModuleList(
      (0-4): 5 x TransformerEncoder(
        (layers): ModuleList(
          (0): TransformerEncoderLayer(
            (self_attn): MultiheadAttention(
              (out_proj): NonDynamicallyQuantizableLinear(in_features=512, out_features=512, bias=True)
            )
            (linear1): Linear(in_features=512, out_features=512, bias=True)
            (dropout): Dropout(p=0.1, inplace=False)
            (linear2): Linear(in_features=512, out_features=512, bias=True)
            (norm1): LayerNorm((512,), eps=1e-05, elementwise_affine=True)
            (norm2): LayerNorm((512,), eps=1e-05, elementwise_affine=True)
            (dropout1): Dropout(p=0.1, inplace=False)
            (dropout2): Dropout(p=0.1, inplace=False)
          )
        )
      )
    )
    (sl1_encoder): TransformerEncoder(
      (layers): ModuleList(
        (0): TransformerEncoderLayer(
          (self_attn): MultiheadAttention(
            (out_proj): NonDynamicallyQuantizableLinear(in_features=512, out_features=512, bias=True)
          )
          (linear1): Linear(in_features=512, out_features=512, bias=True)
          (dropout): Dropout(p=0.1, inplace=False)
          (linear2): Linear(in_features=512, out_features=512, bias=True)
          (norm1): LayerNorm((512,), eps=1e-05, elementwise_affine=True)
          (norm2): LayerNorm((512,), eps=1e-05, elementwise_affine=True)
          (dropout1): Dropout(p=0.1, inplace=False)
          (dropout2): Dropout(p=0.1, inplace=False)
        )
      )
    )
  )
  (fc): Linear(in_features=2048, out_features=60, bias=True)
)
options {'t_input_size': 3200, 's_input_size': 4096, 'hidden_size': 512, 'num_head': 16, 'num_class': 60} {'data_path': './data/NTU-RGB-D-60-AGCN/xsub/train_data_joint.npy', 'label_path': './data/NTU-RGB-D-60-AGCN/xsub/train_label.pkl', 'num_frame_path': './data/NTU-RGB-D-60-AGCN/xsub/train_num_frame.npy', 'l_ratio': [0.95], 'input_size': 64, 'input_representation': 'joint'} {'data_path': './data/NTU-RGB-D-60-AGCN/xsub/val_data_joint.npy', 'label_path': './data/NTU-RGB-D-60-AGCN/xsub/val_label.pkl', 'num_frame_path': './data/NTU-RGB-D-60-AGCN/xsub/val_num_frame.npy', 'l_ratio': [0.95], 'input_size': 64, 'input_representation': 'joint'}
…
Test: [ 90/130]	Time  0.030 ( 0.034)	Loss 4.4722e-01 (4.9727e-01)	Acc@1  83.59 ( 85.10)	Acc@5  96.88 ( 97.18)
Test: [100/130]	Time  0.030 ( 0.034)	Loss 5.3998e-01 (4.9642e-01)	Acc@1  85.94 ( 85.19)	Acc@5  96.88 ( 97.20)
Test: [110/130]	Time  0.030 ( 0.033)	Loss 4.8474e-01 (4.9447e-01)	Acc@1  84.38 ( 85.22)	Acc@5  98.44 ( 97.22)
Test: [120/130]	Time  0.032 ( 0.033)	Loss 4.7336e-01 (4.8934e-01)	Acc@1  86.72 ( 85.34)	Acc@5  96.88 ( 97.26)
 * Acc@1 85.386 Acc@5 97.246
Final  best accuracy tensor(85.5495, device='cuda:0')
DownstreamEncoder(
  (st_encoder): STEncoder_classification(
    (gcn): Model(
      (data_bn): BatchNorm1d(150, eps=1e-05, momentum=0.1, affine=True, track_running_stats=True)
      (l1): TCN_GCN_unit(
        (gcn1): unit_gcn(
          (convs): ModuleList(
            (0-2): 3 x CTRGC(
              (conv1): Conv2d(3, 8, kernel_size=(1, 1), stride=(1, 1))
              (conv2): Conv2d(3, 8, kernel_size=(1, 1), stride=(1, 1))
              (conv3): Conv2d(3, 64, kernel_size=(1, 1), stride=(1, 1))
              (conv4): Conv2d(8, 64, kernel_size=(1, 1), stride=(1, 1))
              (tanh): Tanh()
            )
          )
          (down): Sequential(
            (0): Conv2d(3, 64, kernel_size=(1, 1), stride=(1, 1))
            (1): BatchNorm2d(64, eps=1e-05, momentum=0.1, affine=True, track_running_stats=True)
          )
          (bn): BatchNorm2d(64, eps=1e-05, momentum=0.1, affine=True, track_running_stats=True)
          (soft): Softmax(dim=-2)
          (relu): ReLU(inplace=True)
        )
        (tcn1): MultiScale_TemporalConv(
          (branches): ModuleList(
            (0): Sequential(
              (0): Conv2d(64, 16, kernel_size=(1, 1), stride=(1, 1))
              (1): BatchNorm2d(16, eps=1e-05, momentum=0.1, affine=True, track_running_stats=True)
              (2): ReLU(inplace=True)
              (3): TemporalConv(
                (conv): Conv2d(16, 16, kernel_size=(5, 1), stride=(1, 1), padding=(2, 0))
                (bn): BatchNorm2d(16, eps=1e-05, momentum=0.1, affine=True, track_running_stats=True)
              )
            )
            (1): Sequential(
              (0): Conv2d(64, 16, kernel_size=(1, 1), stride=(1, 1))
              (1): BatchNorm2d(16, eps=1e-05, momentum=0.1, affine=True, track_running_stats=True)
              (2): ReLU(inplace=True)
              (3): TemporalConv(
                (conv): Conv2d(16, 16, kernel_size=(5, 1), stride=(1, 1), padding=(4, 0), dilation=(2, 1))
                (bn): BatchNorm2d(16, eps=1e-05, momentum=0.1, affine=True, track_running_stats=True)
              )
            )
            (2): Sequential(
              (0): Conv2d(64, 16, kernel_size=(1, 1), stride=(1, 1))
              (1): BatchNorm2d(16, eps=1e-05, momentum=0.1, affine=True, track_running_stats=True)
              (2): ReLU(inplace=True)
              (3): MaxPool2d(kernel_size=(3, 1), stride=(1, 1), padding=(1, 0), dilation=1, ceil_mode=False)
              (4): BatchNorm2d(16, eps=1e-05, momentum=0.1, affine=True, track_running_stats=True)
            )
            (3): Sequential(
              (0): Conv2d(64, 16, kernel_size=(1, 1), stride=(1, 1))
              (1): BatchNorm2d(16, eps=1e-05, momentum=0.1, affine=True, track_running_stats=True)
            )
          )
        )
        (relu): ReLU(inplace=True)
        (residual): unit_tcn(
          (conv): Conv2d(3, 64, kernel_size=(1, 1), stride=(1, 1))
          (bn): BatchNorm2d(64, eps=1e-05, momentum=0.1, affine=True, track_running_stats=True)
          (relu): ReLU(inplace=True)
        )
      )
    )
    (t_embedding): Sequential(
      (0): Linear(in_features=3200, out_features=512, bias=True)
      (1): LayerNorm((512,), eps=1e-05, elementwise_affine=True)
      (2): ReLU(inplace=True)
      (3): Linear(in_features=512, out_features=512, bias=True)
    )
    (s_embedding): Sequential(
      (0): Linear(in_features=4096, out_features=512, bias=True)
      (1): LayerNorm((512,), eps=1e-05, elementwise_affine=True)
      (2): ReLU(inplace=True)
      (3): Linear(in_features=512, out_features=512, bias=True)
    )
    (sam): SAM(
      (linear): Linear(in_features=1024, out_features=512, bias=True)
    )
    (t_encoder): TransformerEncoder(
      (layers): ModuleList(
        (0): TransformerEncoderLayer(
          (self_attn): MultiheadAttention(
            (out_proj): NonDynamicallyQuantizableLinear(in_features=512, out_features=512, bias=True)
          )
          (linear1): Linear(in_features=512, out_features=512, bias=True)
          (dropout): Dropout(p=0.1, inplace=False)
          (linear2): Linear(in_features=512, out_features=512, bias=True)
          (norm1): LayerNorm((512,), eps=1e-05, elementwise_affine=True)
          (norm2): LayerNorm((512,), eps=1e-05, elementwise_affine=True)
          (dropout1): Dropout(p=0.1, inplace=False)
          (dropout2): Dropout(p=0.1, inplace=False)
        )
      )
    )
    (tl_encoder): ModuleList(
      (0-3): 4 x TransformerEncoder(
        (layers): ModuleList(
          (0): TransformerEncoderLayer(
            (self_attn): MultiheadAttention(
              (out_proj): NonDynamicallyQuantizableLinear(in_features=512, out_features=512, bias=True)
            )
            (linear1): Linear(in_features=512, out_features=512, bias=True)
            (dropout): Dropout(p=0.1, inplace=False)
            (linear2): Linear(in_features=512, out_features=512, bias=True)
            (norm1): LayerNorm((512,), eps=1e-05, elementwise_affine=True)
            (norm2): LayerNorm((512,), eps=1e-05, elementwise_affine=True)
            (dropout1): Dropout(p=0.1, inplace=False)
            (dropout2): Dropout(p=0.1, inplace=False)
          )
        )
      )
    )
    (tl1_encoder): TransformerEncoder(
      (layers): ModuleList(
        (0): TransformerEncoderLayer(
          (self_attn): MultiheadAttention(
            (out_proj): NonDynamicallyQuantizableLinear(in_features=512, out_features=512, bias=True)
          )
          (linear1): Linear(in_features=512, out_features=512, bias=True)
          (dropout): Dropout(p=0.1, inplace=False)
          (linear2): Linear(in_features=512, out_features=512, bias=True)
          (norm1): LayerNorm((512,), eps=1e-05, elementwise_affine=True)
          (norm2): LayerNorm((512,), eps=1e-05, elementwise_affine=True)
          (dropout1): Dropout(p=0.1, inplace=False)
          (dropout2): Dropout(p=0.1, inplace=False)
        )
      )
    )
    (s_encoder): TransformerEncoder(
      (layers): ModuleList(
        (0): TransformerEncoderLayer(
          (self_attn): MultiheadAttention(
            (out_proj): NonDynamicallyQuantizableLinear(in_features=512, out_features=512, bias=True)
          )
          (linear1): Linear(in_features=512, out_features=512, bias=True)
          (dropout): Dropout(p=0.1, inplace=False)
          (linear2): Linear(in_features=512, out_features=512, bias=True)
          (norm1): LayerNorm((512,), eps=1e-05, elementwise_affine=True)
          (norm2): LayerNorm((512,), eps=1e-05, elementwise_affine=True)
          (dropout1): Dropout(p=0.1, inplace=False)
          (dropout2): Dropout(p=0.1, inplace=False)
        )
      )
    )
    (sl_encoder): ModuleList(
      (0-4): 5 x TransformerEncoder(
        (layers): ModuleList(
          (0): TransformerEncoderLayer(
            (self_attn): MultiheadAttention(
              (out_proj): NonDynamicallyQuantizableLinear(in_features=512, out_features=512, bias=True)
            )
            (linear1): Linear(in_features=512, out_features=512, bias=True)
            (dropout): Dropout(p=0.1, inplace=False)
            (linear2): Linear(in_features=512, out_features=512, bias=True)
            (norm1): LayerNorm((512,), eps=1e-05, elementwise_affine=True)
            (norm2): LayerNorm((512,), eps=1e-05, elementwise_affine=True)
            (dropout1): Dropout(p=0.1, inplace=False)
            (dropout2): Dropout(p=0.1, inplace=False)
          )
        )
      )
    )
    (sl1_encoder): TransformerEncoder(
      (layers): ModuleList(
        (0): TransformerEncoderLayer(
          (self_attn): MultiheadAttention(
            (out_proj): NonDynamicallyQuantizableLinear(in_features=512, out_features=512, bias=True)
          )
          (linear1): Linear(in_features=512, out_features=512, bias=True)
          (dropout): Dropout(p=0.1, inplace=False)
          (linear2): Linear(in_features=512, out_features=512, bias=True)
          (norm1): LayerNorm((512,), eps=1e-05, elementwise_affine=True)
          (norm2): LayerNorm((512,), eps=1e-05, elementwise_affine=True)
          (dropout1): Dropout(p=0.1, inplace=False)
          (dropout2): Dropout(p=0.1, inplace=False)
        )
      )
    )
  )
  (fc): Linear(in_features=2048, out_features=60, bias=True)
)
options {'t_input_size': 3200, 's_input_size': 4096, 'hidden_size': 512, 'num_head': 16, 'num_class': 60} {'data_path': './data/NTU-RGB-D-60-AGCN/xsub/train_data_joint.npy', 'label_path': './data/NTU-RGB-D-60-AGCN/xsub/train_label.pkl', 'num_frame_path': './data/NTU-RGB-D-60-AGCN/xsub/train_num_frame.npy', 'l_ratio': [0.95], 'input_size': 64, 'input_representation': 'joint'} {'data_path': './data/NTU-RGB-D-60-AGCN/xsub/val_data_joint.npy', 'label_path': './data/NTU-RGB-D-60-AGCN/xsub/val_label.pkl', 'num_frame_path': './data/NTU-RGB-D-60-AGCN/xsub/val_num_frame.npy', 'l_ratio': [0.95], 'input_size': 64, 'input_representation': 'joint'}
…
Test: [ 90/130]	Time  0.022 ( 0.028)	Loss 5.7832e-01 (5.2654e-01)	Acc@1  77.34 ( 84.05)	Acc@5  96.09 ( 96.88)
Test: [100/130]	Time  0.029 ( 0.028)	Loss 4.9563e-01 (5.2428e-01)	Acc@1  87.50 ( 84.21)	Acc@5  97.66 ( 96.90)
Test: [110/130]	Time  0.022 ( 0.027)	Loss 4.9426e-01 (5.2240e-01)	Acc@1  83.59 ( 84.28)	Acc@5  97.66 ( 96.95)
Test: [120/130]	Time  0.022 ( 0.027)	Loss 5.4750e-01 (5.1640e-01)	Acc@1  82.03 ( 84.45)	Acc@5  96.88 ( 96.98)
 * Acc@1 84.577 Acc@5 96.981
Final  best accuracy tensor(84.6377, device='cuda:0')
DownstreamEncoder(
  (st_encoder): STEncoder_classification(
    (gcn): Model(
      (data_bn): BatchNorm1d(150, eps=1e-05, momentum=0.1, affine=True, track_running_stats=True)
      (l1): TCN_GCN_unit(
        (gcn1): unit_gcn(
          (convs): ModuleList(
            (0-2): 3 x CTRGC(
              (conv1): Conv2d(3, 8, kernel_size=(1, 1), stride=(1, 1))
              (conv2): Conv2d(3, 8, kernel_size=(1, 1), stride=(1, 1))
              (conv3): Conv2d(3, 64, kernel_size=(1, 1), stride=(1, 1))
              (conv4): Conv2d(8, 64, kernel_size=(1, 1), stride=(1, 1))
              (tanh): Tanh()
            )
          )
          (down): Sequential(
            (0): Conv2d(3, 64, kernel_size=(1, 1), stride=(1, 1))
            (1): BatchNorm2d(64, eps=1e-05, momentum=0.1, affine=True, track_running_stats=True)
          )
          (bn): BatchNorm2d(64, eps=1e-05, momentum=0.1, affine=True, track_running_stats=True)
          (soft): Softmax(dim=-2)
          (relu): ReLU(inplace=True)
        )
        (tcn1): MultiScale_TemporalConv(
          (branches): ModuleList(
            (0): Sequential(
              (0): Conv2d(64, 16, kernel_size=(1, 1), stride=(1, 1))
              (1): BatchNorm2d(16, eps=1e-05, momentum=0.1, affine=True, track_running_stats=True)
              (2): ReLU(inplace=True)
              (3): TemporalConv(
                (conv): Conv2d(16, 16, kernel_size=(5, 1), stride=(1, 1), padding=(2, 0))
                (bn): BatchNorm2d(16, eps=1e-05, momentum=0.1, affine=True, track_running_stats=True)
              )
            )
            (1): Sequential(
              (0): Conv2d(64, 16, kernel_size=(1, 1), stride=(1, 1))
              (1): BatchNorm2d(16, eps=1e-05, momentum=0.1, affine=True, track_running_stats=True)
              (2): ReLU(inplace=True)
              (3): TemporalConv(
                (conv): Conv2d(16, 16, kernel_size=(5, 1), stride=(1, 1), padding=(4, 0), dilation=(2, 1))
                (bn): BatchNorm2d(16, eps=1e-05, momentum=0.1, affine=True, track_running_stats=True)
              )
            )
            (2): Sequential(
              (0): Conv2d(64, 16, kernel_size=(1, 1), stride=(1, 1))
              (1): BatchNorm2d(16, eps=1e-05, momentum=0.1, affine=True, track_running_stats=True)
              (2): ReLU(inplace=True)
              (3): MaxPool2d(kernel_size=(3, 1), stride=(1, 1), padding=(1, 0), dilation=1, ceil_mode=False)
              (4): BatchNorm2d(16, eps=1e-05, momentum=0.1, affine=True, track_running_stats=True)
            )
            (3): Sequential(
              (0): Conv2d(64, 16, kernel_size=(1, 1), stride=(1, 1))
              (1): BatchNorm2d(16, eps=1e-05, momentum=0.1, affine=True, track_running_stats=True)
            )
          )
        )
        (relu): ReLU(inplace=True)
        (residual): unit_tcn(
          (conv): Conv2d(3, 64, kernel_size=(1, 1), stride=(1, 1))
          (bn): BatchNorm2d(64, eps=1e-05, momentum=0.1, affine=True, track_running_stats=True)
          (relu): ReLU(inplace=True)
        )
      )
    )
    (t_embedding): Sequential(
      (0): Linear(in_features=3200, out_features=1024, bias=True)
      (1): LayerNorm((1024,), eps=1e-05, elementwise_affine=True)
      (2): ReLU(inplace=True)
      (3): Linear(in_features=1024, out_features=1024, bias=True)
    )
    (s_embedding): Sequential(
      (0): Linear(in_features=4096, out_features=1024, bias=True)
      (1): LayerNorm((1024,), eps=1e-05, elementwise_affine=True)
      (2): ReLU(inplace=True)
      (3): Linear(in_features=1024, out_features=1024, bias=True)
    )
    (sam): SAM(
      (linear): Linear(in_features=2048, out_features=1024, bias=True)
    )
    (t_encoder): TransformerEncoder(
      (layers): ModuleList(
        (0): TransformerEncoderLayer(
          (self_attn): MultiheadAttention(
            (out_proj): NonDynamicallyQuantizableLinear(in_features=1024, out_features=1024, bias=True)
          )
          (linear1): Linear(in_features=1024, out_features=1024, bias=True)
          (dropout): Dropout(p=0.1, inplace=False)
          (linear2): Linear(in_features=1024, out_features=1024, bias=True)
          (norm1): LayerNorm((1024,), eps=1e-05, elementwise_affine=True)
          (norm2): LayerNorm((1024,), eps=1e-05, elementwise_affine=True)
          (dropout1): Dropout(p=0.1, inplace=False)
          (dropout2): Dropout(p=0.1, inplace=False)
        )
      )
    )
    (tl_encoder): ModuleList(
      (0-3): 4 x TransformerEncoder(
        (layers): ModuleList(
          (0): TransformerEncoderLayer(
            (self_attn): MultiheadAttention(
              (out_proj): NonDynamicallyQuantizableLinear(in_features=1024, out_features=1024, bias=True)
            )
            (linear1): Linear(in_features=1024, out_features=1024, bias=True)
            (dropout): Dropout(p=0.1, inplace=False)
            (linear2): Linear(in_features=1024, out_features=1024, bias=True)
            (norm1): LayerNorm((1024,), eps=1e-05, elementwise_affine=True)
            (norm2): LayerNorm((1024,), eps=1e-05, elementwise_affine=True)
            (dropout1): Dropout(p=0.1, inplace=False)
            (dropout2): Dropout(p=0.1, inplace=False)
          )
        )
      )
    )
    (tl1_encoder): TransformerEncoder(
      (layers): ModuleList(
        (0): TransformerEncoderLayer(
          (self_attn): MultiheadAttention(
            (out_proj): NonDynamicallyQuantizableLinear(in_features=1024, out_features=1024, bias=True)
          )
          (linear1): Linear(in_features=1024, out_features=1024, bias=True)
          (dropout): Dropout(p=0.1, inplace=False)
          (linear2): Linear(in_features=1024, out_features=1024, bias=True)
          (norm1): LayerNorm((1024,), eps=1e-05, elementwise_affine=True)
          (norm2): LayerNorm((1024,), eps=1e-05, elementwise_affine=True)
          (dropout1): Dropout(p=0.1, inplace=False)
          (dropout2): Dropout(p=0.1, inplace=False)
        )
      )
    )
    (s_encoder): TransformerEncoder(
      (layers): ModuleList(
        (0): TransformerEncoderLayer(
          (self_attn): MultiheadAttention(
            (out_proj): NonDynamicallyQuantizableLinear(in_features=1024, out_features=1024, bias=True)
          )
          (linear1): Linear(in_features=1024, out_features=1024, bias=True)
          (dropout): Dropout(p=0.1, inplace=False)
          (linear2): Linear(in_features=1024, out_features=1024, bias=True)
          (norm1): LayerNorm((1024,), eps=1e-05, elementwise_affine=True)
          (norm2): LayerNorm((1024,), eps=1e-05, elementwise_affine=True)
          (dropout1): Dropout(p=0.1, inplace=False)
          (dropout2): Dropout(p=0.1, inplace=False)
        )
      )
    )
    (sl_encoder): ModuleList(
      (0-4): 5 x TransformerEncoder(
        (layers): ModuleList(
          (0): TransformerEncoderLayer(
            (self_attn): MultiheadAttention(
              (out_proj): NonDynamicallyQuantizableLinear(in_features=1024, out_features=1024, bias=True)
            )
            (linear1): Linear(in_features=1024, out_features=1024, bias=True)
            (dropout): Dropout(p=0.1, inplace=False)
            (linear2): Linear(in_features=1024, out_features=1024, bias=True)
            (norm1): LayerNorm((1024,), eps=1e-05, elementwise_affine=True)
            (norm2): LayerNorm((1024,), eps=1e-05, elementwise_affine=True)
            (dropout1): Dropout(p=0.1, inplace=False)
            (dropout2): Dropout(p=0.1, inplace=False)
          )
        )
      )
    )
    (sl1_encoder): TransformerEncoder(
      (layers): ModuleList(
        (0): TransformerEncoderLayer(
          (self_attn): MultiheadAttention(
            (out_proj): NonDynamicallyQuantizableLinear(in_features=1024, out_features=1024, bias=True)
          )
          (linear1): Linear(in_features=1024, out_features=1024, bias=True)
          (dropout): Dropout(p=0.1, inplace=False)
          (linear2): Linear(in_features=1024, out_features=1024, bias=True)
          (norm1): LayerNorm((1024,), eps=1e-05, elementwise_affine=True)
          (norm2): LayerNorm((1024,), eps=1e-05, elementwise_affine=True)
          (dropout1): Dropout(p=0.1, inplace=False)
          (dropout2): Dropout(p=0.1, inplace=False)
        )
      )
    )
  )
  (fc): Linear(in_features=4096, out_features=60, bias=True)
)
options {'t_input_size': 3200, 's_input_size': 4096, 'hidden_size': 1024, 'num_head': 16, 'num_class': 60} {'data_path': './data/NTU-RGB-D-60-AGCN/xsub/train_data_joint.npy', 'label_path': './data/NTU-RGB-D-60-AGCN/xsub/train_label.pkl', 'num_frame_path': './data/NTU-RGB-D-60-AGCN/xsub/train_num_frame.npy', 'l_ratio': [0.95], 'input_size': 64, 'input_representation': 'joint'} {'data_path': './data/NTU-RGB-D-60-AGCN/xsub/val_data_joint.npy', 'label_path': './data/NTU-RGB-D-60-AGCN/xsub/val_label.pkl', 'num_frame_path': './data/NTU-RGB-D-60-AGCN/xsub/val_num_frame.npy', 'l_ratio': [0.95], 'input_size': 64, 'input_representation': 'joint'}
…
options {'t_input_size': 3200, 's_input_size': 4096, 'hidden_size': 1024, 'num_head': 16, 'num_class': 60} {'data_path': './data/NTU-RGB-D-60-AGCN/xsub/train_data_joint.npy', 'label_path': './data/NTU-RGB-D-60-AGCN/xsub/train_label.pkl', 'num_frame_path': './data/NTU-RGB-D-60-AGCN/xsub/train_num_frame.npy', 'l_ratio': [0.95], 'input_size': 64, 'input_representation': 'joint'} {'data_path': './data/NTU-RGB-D-60-AGCN/xsub/val_data_joint.npy', 'label_path': './data/NTU-RGB-D-60-AGCN/xsub/val_label.pkl', 'num_frame_path': './data/NTU-RGB-D-60-AGCN/xsub/val_num_frame.npy', 'l_ratio': [0.95], 'input_size': 64, 'input_representation': 'joint'}
params fc.weight
params fc.bias
=> loading checkpoint './checkpoints_distill/ntu60_xsub_joint/checkpoint_0400.pth.tar'
DownstreamEncoder(
  (st_encoder): STEncoder_classification(
    (gcn): Model(
      (data_bn): BatchNorm1d(150, eps=1e-05, momentum=0.1, affine=True, track_running_stats=True)
      (l1): TCN_GCN_unit(
        (gcn1): unit_gcn(
          (convs): ModuleList(
            (0-2): 3 x CTRGC(
              (conv1): Conv2d(3, 8, kernel_size=(1, 1), stride=(1, 1))
              (conv2): Conv2d(3, 8, kernel_size=(1, 1), stride=(1, 1))
              (conv3): Conv2d(3, 64, kernel_size=(1, 1), stride=(1, 1))
              (conv4): Conv2d(8, 64, kernel_size=(1, 1), stride=(1, 1))
              (tanh): Tanh()
            )
          )
          (down): Sequential(
            (0): Conv2d(3, 64, kernel_size=(1, 1), stride=(1, 1))
            (1): BatchNorm2d(64, eps=1e-05, momentum=0.1, affine=True, track_running_stats=True)
          )
          (bn): BatchNorm2d(64, eps=1e-05, momentum=0.1, affine=True, track_running_stats=True)
          (soft): Softmax(dim=-2)
          (relu): ReLU(inplace=True)
        )
        (tcn1): MultiScale_TemporalConv(
          (branches): ModuleList(
            (0): Sequential(
              (0): Conv2d(64, 16, kernel_size=(1, 1), stride=(1, 1))
              (1): BatchNorm2d(16, eps=1e-05, momentum=0.1, affine=True, track_running_stats=True)
              (2): ReLU(inplace=True)
              (3): TemporalConv(
                (conv): Conv2d(16, 16, kernel_size=(5, 1), stride=(1, 1), padding=(2, 0))
                (bn): BatchNorm2d(16, eps=1e-05, momentum=0.1, affine=True, track_running_stats=True)
              )
            )
            (1): Sequential(
              (0): Conv2d(64, 16, kernel_size=(1, 1), stride=(1, 1))
              (1): BatchNorm2d(16, eps=1e-05, momentum=0.1, affine=True, track_running_stats=True)
              (2): ReLU(inplace=True)
              (3): TemporalConv(
                (conv): Conv2d(16, 16, kernel_size=(5, 1), stride=(1, 1), padding=(4, 0), dilation=(2, 1))
                (bn): BatchNorm2d(16, eps=1e-05, momentum=0.1, affine=True, track_running_stats=True)
              )
            )
            (2): Sequential(
              (0): Conv2d(64, 16, kernel_size=(1, 1), stride=(1, 1))
              (1): BatchNorm2d(16, eps=1e-05, momentum=0.1, affine=True, track_running_stats=True)
              (2): ReLU(inplace=True)
              (3): MaxPool2d(kernel_size=(3, 1), stride=(1, 1), padding=(1, 0), dilation=1, ceil_mode=False)
              (4): BatchNorm2d(16, eps=1e-05, momentum=0.1, affine=True, track_running_stats=True)
            )
            (3): Sequential(
              (0): Conv2d(64, 16, kernel_size=(1, 1), stride=(1, 1))
              (1): BatchNorm2d(16, eps=1e-05, momentum=0.1, affine=True, track_running_stats=True)
            )
          )
        )
        (relu): ReLU(inplace=True)
        (residual): unit_tcn(
          (conv): Conv2d(3, 64, kernel_size=(1, 1), stride=(1, 1))
          (bn): BatchNorm2d(64, eps=1e-05, momentum=0.1, affine=True, track_running_stats=True)
          (relu): ReLU(inplace=True)
        )
      )
    )
    (t_embedding): Sequential(
      (0): Linear(in_features=3200, out_features=2048, bias=True)
      (1): LayerNorm((2048,), eps=1e-05, elementwise_affine=True)
      (2): ReLU(inplace=True)
      (3): Linear(in_features=2048, out_features=2048, bias=True)
    )
    (s_embedding): Sequential(
      (0): Linear(in_features=4096, out_features=2048, bias=True)
      (1): LayerNorm((2048,), eps=1e-05, elementwise_affine=True)
      (2): ReLU(inplace=True)
      (3): Linear(in_features=2048, out_features=2048, bias=True)
    )
    (sam): SAM(
      (linear): Linear(in_features=4096, out_features=2048, bias=True)
    )
    (t_encoder): TransformerEncoder(
      (layers): ModuleList(
        (0): TransformerEncoderLayer(
          (self_attn): MultiheadAttention(
            (out_proj): NonDynamicallyQuantizableLinear(in_features=2048, out_features=2048, bias=True)
          )
          (linear1): Linear(in_features=2048, out_features=2048, bias=True)
          (dropout): Dropout(p=0.1, inplace=False)
          (linear2): Linear(in_features=2048, out_features=2048, bias=True)
          (norm1): LayerNorm((2048,), eps=1e-05, elementwise_affine=True)
          (norm2): LayerNorm((2048,), eps=1e-05, elementwise_affine=True)
          (dropout1): Dropout(p=0.1, inplace=False)
          (dropout2): Dropout(p=0.1, inplace=False)
        )
      )
    )
    (tl_encoder): ModuleList(
      (0-3): 4 x TransformerEncoder(
        (layers): ModuleList(
          (0): TransformerEncoderLayer(
            (self_attn): MultiheadAttention(
              (out_proj): NonDynamicallyQuantizableLinear(in_features=2048, out_features=2048, bias=True)
            )
            (linear1): Linear(in_features=2048, out_features=2048, bias=True)
            (dropout): Dropout(p=0.1, inplace=False)
            (linear2): Linear(in_features=2048, out_features=2048, bias=True)
            (norm1): LayerNorm((2048,), eps=1e-05, elementwise_affine=True)
            (norm2): LayerNorm((2048,), eps=1e-05, elementwise_affine=True)
            (dropout1): Dropout(p=0.1, inplace=False)
            (dropout2): Dropout(p=0.1, inplace=False)
          )
        )
      )
    )
    (tl1_encoder): TransformerEncoder(
      (layers): ModuleList(
        (0): TransformerEncoderLayer(
          (self_attn): MultiheadAttention(
            (out_proj): NonDynamicallyQuantizableLinear(in_features=2048, out_features=2048, bias=True)
          )
          (linear1): Linear(in_features=2048, out_features=2048, bias=True)
          (dropout): Dropout(p=0.1, inplace=False)
          (linear2): Linear(in_features=2048, out_features=2048, bias=True)
          (norm1): LayerNorm((2048,), eps=1e-05, elementwise_affine=True)
          (norm2): LayerNorm((2048,), eps=1e-05, elementwise_affine=True)
          (dropout1): Dropout(p=0.1, inplace=False)
          (dropout2): Dropout(p=0.1, inplace=False)
        )
      )
    )
    (s_encoder): TransformerEncoder(
      (layers): ModuleList(
        (0): TransformerEncoderLayer(
          (self_attn): MultiheadAttention(
            (out_proj): NonDynamicallyQuantizableLinear(in_features=2048, out_features=2048, bias=True)
          )
          (linear1): Linear(in_features=2048, out_features=2048, bias=True)
          (dropout): Dropout(p=0.1, inplace=False)
          (linear2): Linear(in_features=2048, out_features=2048, bias=True)
          (norm1): LayerNorm((2048,), eps=1e-05, elementwise_affine=True)
          (norm2): LayerNorm((2048,), eps=1e-05, elementwise_affine=True)
          (dropout1): Dropout(p=0.1, inplace=False)
          (dropout2): Dropout(p=0.1, inplace=False)
        )
      )
    )
    (sl_encoder): ModuleList(
      (0-4): 5 x TransformerEncoder(
        (layers): ModuleList(
          (0): TransformerEncoderLayer(
            (self_attn): MultiheadAttention(
              (out_proj): NonDynamicallyQuantizableLinear(in_features=2048, out_features=2048, bias=True)
            )
            (linear1): Linear(in_features=2048, out_features=2048, bias=True)
            (dropout): Dropout(p=0.1, inplace=False)
            (linear2): Linear(in_features=2048, out_features=2048, bias=True)
            (norm1): LayerNorm((2048,), eps=1e-05, elementwise_affine=True)
            (norm2): LayerNorm((2048,), eps=1e-05, elementwise_affine=True)
            (dropout1): Dropout(p=0.1, inplace=False)
            (dropout2): Dropout(p=0.1, inplace=False)
          )
        )
      )
    )
    (sl1_encoder): TransformerEncoder(
      (layers): ModuleList(
        (0): TransformerEncoderLayer(
          (self_attn): MultiheadAttention(
            (out_proj): NonDynamicallyQuantizableLinear(in_features=2048, out_features=2048, bias=True)
          )
          (linear1): Linear(in_features=2048, out_features=2048, bias=True)
          (dropout): Dropout(p=0.1, inplace=False)
          (linear2): Linear(in_features=2048, out_features=2048, bias=True)
          (norm1): LayerNorm((2048,), eps=1e-05, elementwise_affine=True)
          (norm2): LayerNorm((2048,), eps=1e-05, elementwise_affine=True)
          (dropout1): Dropout(p=0.1, inplace=False)
          (dropout2): Dropout(p=0.1, inplace=False)
        )
      )
    )
  )
  (fc): Linear(in_features=8192, out_features=60, bias=True)
)
options {'t_input_size': 3200, 's_input_size': 4096, 'hidden_size': 2048, 'num_head': 16, 'num_class': 60} {'data_path': './data/NTU-RGB-D-60-AGCN/xsub/train_data_joint.npy', 'label_path': './data/NTU-RGB-D-60-AGCN/xsub/train_label.pkl', 'num_frame_path': './data/NTU-RGB-D-60-AGCN/xsub/train_num_frame.npy', 'l_ratio': [0.95], 'input_size': 64, 'input_representation': 'joint'} {'data_path': './data/NTU-RGB-D-60-AGCN/xsub/val_data_joint.npy', 'label_path': './data/NTU-RGB-D-60-AGCN/xsub/val_label.pkl', 'num_frame_path': './data/NTU-RGB-D-60-AGCN/xsub/val_num_frame.npy', 'l_ratio': [0.95], 'input_size': 64, 'input_representation': 'joint'}
…
Test: [ 90/130]	Time  0.089 ( 0.095)	Loss 4.5375e-01 (4.7741e-01)	Acc@1  82.03 ( 85.36)	Acc@5  96.88 ( 97.18)
Test: [100/130]	Time  0.090 ( 0.094)	Loss 4.3304e-01 (4.7415e-01)	Acc@1  88.28 ( 85.52)	Acc@5  97.66 ( 97.22)
Test: [110/130]	Time  0.085 ( 0.093)	Loss 4.6423e-01 (4.7201e-01)	Acc@1  83.59 ( 85.55)	Acc@5  97.66 ( 97.26)
Test: [120/130]	Time  0.083 ( 0.093)	Loss 4.5310e-01 (4.6721e-01)	Acc@1  85.16 ( 85.67)	Acc@5  96.88 ( 97.27)
 * Acc@1 85.755 Acc@5 97.264
Final  best accuracy tensor(85.8514, device='cuda:0')
DownstreamEncoder(
  (st_encoder): STEncoder_classification(
    (gcn): Model(
      (data_bn): BatchNorm1d(150, eps=1e-05, momentum=0.1, affine=True, track_running_stats=True)
      (l1): TCN_GCN_unit(
        (gcn1): unit_gcn(
          (convs): ModuleList(
            (0-2): 3 x CTRGC(
              (conv1): Conv2d(3, 8, kernel_size=(1, 1), stride=(1, 1))
              (conv2): Conv2d(3, 8, kernel_size=(1, 1), stride=(1, 1))
              (conv3): Conv2d(3, 64, kernel_size=(1, 1), stride=(1, 1))
              (conv4): Conv2d(8, 64, kernel_size=(1, 1), stride=(1, 1))
              (tanh): Tanh()
            )
          )
          (down): Sequential(
            (0): Conv2d(3, 64, kernel_size=(1, 1), stride=(1, 1))
            (1): BatchNorm2d(64, eps=1e-05, momentum=0.1, affine=True, track_running_stats=True)
          )
          (bn): BatchNorm2d(64, eps=1e-05, momentum=0.1, affine=True, track_running_stats=True)
          (soft): Softmax(dim=-2)
          (relu): ReLU(inplace=True)
        )
        (tcn1): MultiScale_TemporalConv(
          (branches): ModuleList(
            (0): Sequential(
              (0): Conv2d(64, 16, kernel_size=(1, 1), stride=(1, 1))
              (1): BatchNorm2d(16, eps=1e-05, momentum=0.1, affine=True, track_running_stats=True)
              (2): ReLU(inplace=True)
              (3): TemporalConv(
                (conv): Conv2d(16, 16, kernel_size=(5, 1), stride=(1, 1), padding=(2, 0))
                (bn): BatchNorm2d(16, eps=1e-05, momentum=0.1, affine=True, track_running_stats=True)
              )
            )
            (1): Sequential(
              (0): Conv2d(64, 16, kernel_size=(1, 1), stride=(1, 1))
              (1): BatchNorm2d(16, eps=1e-05, momentum=0.1, affine=True, track_running_stats=True)
              (2): ReLU(inplace=True)
              (3): TemporalConv(
                (conv): Conv2d(16, 16, kernel_size=(5, 1), stride=(1, 1), padding=(4, 0), dilation=(2, 1))
                (bn): BatchNorm2d(16, eps=1e-05, momentum=0.1, affine=True, track_running_stats=True)
              )
            )
            (2): Sequential(
              (0): Conv2d(64, 16, kernel_size=(1, 1), stride=(1, 1))
              (1): BatchNorm2d(16, eps=1e-05, momentum=0.1, affine=True, track_running_stats=True)
              (2): ReLU(inplace=True)
              (3): MaxPool2d(kernel_size=(3, 1), stride=(1, 1), padding=(1, 0), dilation=1, ceil_mode=False)
              (4): BatchNorm2d(16, eps=1e-05, momentum=0.1, affine=True, track_running_stats=True)
            )
            (3): Sequential(
              (0): Conv2d(64, 16, kernel_size=(1, 1), stride=(1, 1))
              (1): BatchNorm2d(16, eps=1e-05, momentum=0.1, affine=True, track_running_stats=True)
            )
          )
        )
        (relu): ReLU(inplace=True)
        (residual): unit_tcn(
          (conv): Conv2d(3, 64, kernel_size=(1, 1), stride=(1, 1))
          (bn): BatchNorm2d(64, eps=1e-05, momentum=0.1, affine=True, track_running_stats=True)
          (relu): ReLU(inplace=True)
        )
      )
    )
    (t_embedding): Sequential(
      (0): Linear(in_features=3200, out_features=2048, bias=True)
      (1): LayerNorm((2048,), eps=1e-05, elementwise_affine=True)
      (2): ReLU(inplace=True)
      (3): Linear(in_features=2048, out_features=2048, bias=True)
    )
    (s_embedding): Sequential(
      (0): Linear(in_features=4096, out_features=2048, bias=True)
      (1): LayerNorm((2048,), eps=1e-05, elementwise_affine=True)
      (2): ReLU(inplace=True)
      (3): Linear(in_features=2048, out_features=2048, bias=True)
    )
    (sam): SAM(
      (linear): Linear(in_features=4096, out_features=2048, bias=True)
    )
    (t_encoder): TransformerEncoder(
      (layers): ModuleList(
        (0): TransformerEncoderLayer(
          (self_attn): MultiheadAttention(
            (out_proj): NonDynamicallyQuantizableLinear(in_features=2048, out_features=2048, bias=True)
          )
          (linear1): Linear(in_features=2048, out_features=2048, bias=True)
          (dropout): Dropout(p=0.1, inplace=False)
          (linear2): Linear(in_features=2048, out_features=2048, bias=True)
          (norm1): LayerNorm((2048,), eps=1e-05, elementwise_affine=True)
          (norm2): LayerNorm((2048,), eps=1e-05, elementwise_affine=True)
          (dropout1): Dropout(p=0.1, inplace=False)
          (dropout2): Dropout(p=0.1, inplace=False)
        )
      )
    )
    (tl_encoder): ModuleList(
      (0-3): 4 x TransformerEncoder(
        (layers): ModuleList(
          (0): TransformerEncoderLayer(
            (self_attn): MultiheadAttention(
              (out_proj): NonDynamicallyQuantizableLinear(in_features=2048, out_features=2048, bias=True)
            )
            (linear1): Linear(in_features=2048, out_features=2048, bias=True)
            (dropout): Dropout(p=0.1, inplace=False)
            (linear2): Linear(in_features=2048, out_features=2048, bias=True)
            (norm1): LayerNorm((2048,), eps=1e-05, elementwise_affine=True)
            (norm2): LayerNorm((2048,), eps=1e-05, elementwise_affine=True)
            (dropout1): Dropout(p=0.1, inplace=False)
            (dropout2): Dropout(p=0.1, inplace=False)
          )
        )
      )
    )
    (tl1_encoder): TransformerEncoder(
      (layers): ModuleList(
        (0): TransformerEncoderLayer(
          (self_attn): MultiheadAttention(
            (out_proj): NonDynamicallyQuantizableLinear(in_features=2048, out_features=2048, bias=True)
          )
          (linear1): Linear(in_features=2048, out_features=2048, bias=True)
          (dropout): Dropout(p=0.1, inplace=False)
          (linear2): Linear(in_features=2048, out_features=2048, bias=True)
          (norm1): LayerNorm((2048,), eps=1e-05, elementwise_affine=True)
          (norm2): LayerNorm((2048,), eps=1e-05, elementwise_affine=True)
          (dropout1): Dropout(p=0.1, inplace=False)
          (dropout2): Dropout(p=0.1, inplace=False)
        )
      )
    )
    (s_encoder): TransformerEncoder(
      (layers): ModuleList(
        (0): TransformerEncoderLayer(
          (self_attn): MultiheadAttention(
            (out_proj): NonDynamicallyQuantizableLinear(in_features=2048, out_features=2048, bias=True)
          )
          (linear1): Linear(in_features=2048, out_features=2048, bias=True)
          (dropout): Dropout(p=0.1, inplace=False)
          (linear2): Linear(in_features=2048, out_features=2048, bias=True)
          (norm1): LayerNorm((2048,), eps=1e-05, elementwise_affine=True)
          (norm2): LayerNorm((2048,), eps=1e-05, elementwise_affine=True)
          (dropout1): Dropout(p=0.1, inplace=False)
          (dropout2): Dropout(p=0.1, inplace=False)
        )
      )
    )
    (sl_encoder): ModuleList(
      (0-4): 5 x TransformerEncoder(
        (layers): ModuleList(
          (0): TransformerEncoderLayer(
            (self_attn): MultiheadAttention(
              (out_proj): NonDynamicallyQuantizableLinear(in_features=2048, out_features=2048, bias=True)
            )
            (linear1): Linear(in_features=2048, out_features=2048, bias=True)
            (dropout): Dropout(p=0.1, inplace=False)
            (linear2): Linear(in_features=2048, out_features=2048, bias=True)
            (norm1): LayerNorm((2048,), eps=1e-05, elementwise_affine=True)
            (norm2): LayerNorm((2048,), eps=1e-05, elementwise_affine=True)
            (dropout1): Dropout(p=0.1, inplace=False)
            (dropout2): Dropout(p=0.1, inplace=False)
          )
        )
      )
    )
    (sl1_encoder): TransformerEncoder(
      (layers): ModuleList(
        (0): TransformerEncoderLayer(
          (self_attn): MultiheadAttention(
            (out_proj): NonDynamicallyQuantizableLinear(in_features=2048, out_features=2048, bias=True)
          )
          (linear1): Linear(in_features=2048, out_features=2048, bias=True)
          (dropout): Dropout(p=0.1, inplace=False)
          (linear2): Linear(in_features=2048, out_features=2048, bias=True)
          (norm1): LayerNorm((2048,), eps=1e-05, elementwise_affine=True)
          (norm2): LayerNorm((2048,), eps=1e-05, elementwise_affine=True)
          (dropout1): Dropout(p=0.1, inplace=False)
          (dropout2): Dropout(p=0.1, inplace=False)
        )
      )
    )
  )
  (fc): Linear(in_features=8192, out_features=60, bias=True)
)DownstreamEncoder(
  (st_encoder): STEncoder_classification(
    (gcn): Model(
      (data_bn): BatchNorm1d(150, eps=1e-05, momentum=0.1, affine=True, track_running_stats=True)
      (l1): TCN_GCN_unit(
        (gcn1): unit_gcn(
          (convs): ModuleList(
            (0-2): 3 x CTRGC(
              (conv1): Conv2d(3, 8, kernel_size=(1, 1), stride=(1, 1))
              (conv2): Conv2d(3, 8, kernel_size=(1, 1), stride=(1, 1))
              (conv3): Conv2d(3, 64, kernel_size=(1, 1), stride=(1, 1))
              (conv4): Conv2d(8, 64, kernel_size=(1, 1), stride=(1, 1))
              (tanh): Tanh()
            )
          )
          (down): Sequential(
            (0): Conv2d(3, 64, kernel_size=(1, 1), stride=(1, 1))
            (1): BatchNorm2d(64, eps=1e-05, momentum=0.1, affine=True, track_running_stats=True)
          )
          (bn): BatchNorm2d(64, eps=1e-05, momentum=0.1, affine=True, track_running_stats=True)
          (soft): Softmax(dim=-2)
          (relu): ReLU(inplace=True)
        )
        (tcn1): MultiScale_TemporalConv(
          (branches): ModuleList(
            (0): Sequential(
              (0): Conv2d(64, 16, kernel_size=(1, 1), stride=(1, 1))
              (1): BatchNorm2d(16, eps=1e-05, momentum=0.1, affine=True, track_running_stats=True)
              (2): ReLU(inplace=True)
              (3): TemporalConv(
                (conv): Conv2d(16, 16, kernel_size=(5, 1), stride=(1, 1), padding=(2, 0))
                (bn): BatchNorm2d(16, eps=1e-05, momentum=0.1, affine=True, track_running_stats=True)
              )
            )
            (1): Sequential(
              (0): Conv2d(64, 16, kernel_size=(1, 1), stride=(1, 1))
              (1): BatchNorm2d(16, eps=1e-05, momentum=0.1, affine=True, track_running_stats=True)
              (2): ReLU(inplace=True)
              (3): TemporalConv(
                (conv): Conv2d(16, 16, kernel_size=(5, 1), stride=(1, 1), padding=(4, 0), dilation=(2, 1))
                (bn): BatchNorm2d(16, eps=1e-05, momentum=0.1, affine=True, track_running_stats=True)
              )
            )
            (2): Sequential(
              (0): Conv2d(64, 16, kernel_size=(1, 1), stride=(1, 1))
              (1): BatchNorm2d(16, eps=1e-05, momentum=0.1, affine=True, track_running_stats=True)
              (2): ReLU(inplace=True)
              (3): MaxPool2d(kernel_size=(3, 1), stride=(1, 1), padding=(1, 0), dilation=1, ceil_mode=False)
              (4): BatchNorm2d(16, eps=1e-05, momentum=0.1, affine=True, track_running_stats=True)
            )
            (3): Sequential(
              (0): Conv2d(64, 16, kernel_size=(1, 1), stride=(1, 1))
              (1): BatchNorm2d(16, eps=1e-05, momentum=0.1, affine=True, track_running_stats=True)
            )
          )
        )
        (relu): ReLU(inplace=True)
        (residual): unit_tcn(
          (conv): Conv2d(3, 64, kernel_size=(1, 1), stride=(1, 1))
          (bn): BatchNorm2d(64, eps=1e-05, momentum=0.1, affine=True, track_running_stats=True)
          (relu): ReLU(inplace=True)
        )
      )
    )
    (t_embedding): Sequential(
      (0): Linear(in_features=150, out_features=512, bias=True)
      (1): LayerNorm((512,), eps=1e-05, elementwise_affine=True)
      (2): ReLU(inplace=True)
      (3): Linear(in_features=512, out_features=512, bias=True)
    )
    (s_embedding): Sequential(
      (0): Linear(in_features=192, out_features=512, bias=True)
      (1): LayerNorm((512,), eps=1e-05, elementwise_affine=True)
      (2): ReLU(inplace=True)
      (3): Linear(in_features=512, out_features=512, bias=True)
    )
    (sam): SAM(
      (linear): Linear(in_features=1024, out_features=512, bias=True)
    )
    (t_encoder): TransformerEncoder(
      (layers): ModuleList(
        (0): TransformerEncoderLayer(
          (self_attn): MultiheadAttention(
            (out_proj): NonDynamicallyQuantizableLinear(in_features=512, out_features=512, bias=True)
          )
          (linear1): Linear(in_features=512, out_features=512, bias=True)
          (dropout): Dropout(p=0.1, inplace=False)
          (linear2): Linear(in_features=512, out_features=512, bias=True)
          (norm1): LayerNorm((512,), eps=1e-05, elementwise_affine=True)
          (norm2): LayerNorm((512,), eps=1e-05, elementwise_affine=True)
          (dropout1): Dropout(p=0.1, inplace=False)
          (dropout2): Dropout(p=0.1, inplace=False)
        )
      )
    )
    (tl_encoder): ModuleList(
      (0-3): 4 x TransformerEncoder(
        (layers): ModuleList(
          (0): TransformerEncoderLayer(
            (self_attn): MultiheadAttention(
              (out_proj): NonDynamicallyQuantizableLinear(in_features=512, out_features=512, bias=True)
            )
            (linear1): Linear(in_features=512, out_features=512, bias=True)
            (dropout): Dropout(p=0.1, inplace=False)
            (linear2): Linear(in_features=512, out_features=512, bias=True)
            (norm1): LayerNorm((512,), eps=1e-05, elementwise_affine=True)
            (norm2): LayerNorm((512,), eps=1e-05, elementwise_affine=True)
            (dropout1): Dropout(p=0.1, inplace=False)
            (dropout2): Dropout(p=0.1, inplace=False)
          )
        )
      )
    )
    (tl1_encoder): TransformerEncoder(
      (layers): ModuleList(
        (0): TransformerEncoderLayer(
          (self_attn): MultiheadAttention(
            (out_proj): NonDynamicallyQuantizableLinear(in_features=512, out_features=512, bias=True)
          )
          (linear1): Linear(in_features=512, out_features=512, bias=True)
          (dropout): Dropout(p=0.1, inplace=False)
          (linear2): Linear(in_features=512, out_features=512, bias=True)
          (norm1): LayerNorm((512,), eps=1e-05, elementwise_affine=True)
          (norm2): LayerNorm((512,), eps=1e-05, elementwise_affine=True)
          (dropout1): Dropout(p=0.1, inplace=False)
          (dropout2): Dropout(p=0.1, inplace=False)
        )
      )
    )
    (s_encoder): TransformerEncoder(
      (layers): ModuleList(
        (0): TransformerEncoderLayer(
          (self_attn): MultiheadAttention(
            (out_proj): NonDynamicallyQuantizableLinear(in_features=512, out_features=512, bias=True)
          )
          (linear1): Linear(in_features=512, out_features=512, bias=True)
          (dropout): Dropout(p=0.1, inplace=False)
          (linear2): Linear(in_features=512, out_features=512, bias=True)
          (norm1): LayerNorm((512,), eps=1e-05, elementwise_affine=True)
          (norm2): LayerNorm((512,), eps=1e-05, elementwise_affine=True)
          (dropout1): Dropout(p=0.1, inplace=False)
          (dropout2): Dropout(p=0.1, inplace=False)
        )
      )
    )
    (sl_encoder): ModuleList(
      (0-4): 5 x TransformerEncoder(
        (layers): ModuleList(
          (0): TransformerEncoderLayer(
            (self_attn): MultiheadAttention(
              (out_proj): NonDynamicallyQuantizableLinear(in_features=512, out_features=512, bias=True)
            )
            (linear1): Linear(in_features=512, out_features=512, bias=True)
            (dropout): Dropout(p=0.1, inplace=False)
            (linear2): Linear(in_features=512, out_features=512, bias=True)
            (norm1): LayerNorm((512,), eps=1e-05, elementwise_affine=True)
            (norm2): LayerNorm((512,), eps=1e-05, elementwise_affine=True)
            (dropout1): Dropout(p=0.1, inplace=False)
            (dropout2): Dropout(p=0.1, inplace=False)
          )
        )
      )
    )
    (sl1_encoder): TransformerEncoder(
      (layers): ModuleList(
        (0): TransformerEncoderLayer(
          (self_attn): MultiheadAttention(
            (out_proj): NonDynamicallyQuantizableLinear(in_features=512, out_features=512, bias=True)
          )
          (linear1): Linear(in_features=512, out_features=512, bias=True)
          (dropout): Dropout(p=0.1, inplace=False)
          (linear2): Linear(in_features=512, out_features=512, bias=True)
          (norm1): LayerNorm((512,), eps=1e-05, elementwise_affine=True)
          (norm2): LayerNorm((512,), eps=1e-05, elementwise_affine=True)
          (dropout1): Dropout(p=0.1, inplace=False)
          (dropout2): Dropout(p=0.1, inplace=False)
        )
      )
    )
  )
  (fc): Linear(in_features=2048, out_features=60, bias=True)
)
options {'t_input_size': 150, 's_input_size': 192, 'hidden_size': 512, 'num_head': 16, 'num_class': 60} {'data_path': './data/NTU-RGB-D-60-AGCN/xsub/train_data_joint.npy', 'label_path': './data/NTU-RGB-D-60-AGCN/xsub/train_label.pkl', 'num_frame_path': './data/NTU-RGB-D-60-AGCN/xsub/train_num_frame.npy', 'l_ratio': [0.95], 'input_size': 64, 'input_representation': 'joint'} {'data_path': './data/NTU-RGB-D-60-AGCN/xsub/val_data_joint.npy', 'label_path': './data/NTU-RGB-D-60-AGCN/xsub/val_label.pkl', 'num_frame_path': './data/NTU-RGB-D-60-AGCN/xsub/val_num_frame.npy', 'l_ratio': [0.95], 'input_size': 64, 'input_representation': 'joint'}
…
Test: [ 90/130]	Time  0.008 ( 0.012)	Loss 6.4188e-01 (5.9548e-01)	Acc@1  83.59 ( 82.39)	Acc@5  94.53 ( 96.45)
Test: [100/130]	Time  0.008 ( 0.012)	Loss 5.2170e-01 (5.9325e-01)	Acc@1  85.16 ( 82.50)	Acc@5  96.09 ( 96.41)
Test: [110/130]	Time  0.007 ( 0.011)	Loss 5.9356e-01 (5.9163e-01)	Acc@1  78.12 ( 82.48)	Acc@5  95.31 ( 96.42)
Test: [120/130]	Time  0.007 ( 0.011)	Loss 5.6602e-01 (5.8438e-01)	Acc@1  83.59 ( 82.64)	Acc@5  94.53 ( 96.49)
 * Acc@1 82.778 Acc@5 96.479
Final  best accuracy tensor(82.8321, device='cuda:0')
DownstreamEncoder(
  (st_encoder): STEncoder_classification(
    (gcn): Model(
      (data_bn): BatchNorm1d(150, eps=1e-05, momentum=0.1, affine=True, track_running_stats=True)
      (l1): TCN_GCN_unit(
        (gcn1): unit_gcn(
          (convs): ModuleList(
            (0-2): 3 x CTRGC(
              (conv1): Conv2d(3, 8, kernel_size=(1, 1), stride=(1, 1))
              (conv2): Conv2d(3, 8, kernel_size=(1, 1), stride=(1, 1))
              (conv3): Conv2d(3, 64, kernel_size=(1, 1), stride=(1, 1))
              (conv4): Conv2d(8, 64, kernel_size=(1, 1), stride=(1, 1))
              (tanh): Tanh()
            )
          )
          (down): Sequential(
            (0): Conv2d(3, 64, kernel_size=(1, 1), stride=(1, 1))
            (1): BatchNorm2d(64, eps=1e-05, momentum=0.1, affine=True, track_running_stats=True)
          )
          (bn): BatchNorm2d(64, eps=1e-05, momentum=0.1, affine=True, track_running_stats=True)
          (soft): Softmax(dim=-2)
          (relu): ReLU(inplace=True)
        )
        (tcn1): MultiScale_TemporalConv(
          (branches): ModuleList(
            (0): Sequential(
              (0): Conv2d(64, 16, kernel_size=(1, 1), stride=(1, 1))
              (1): BatchNorm2d(16, eps=1e-05, momentum=0.1, affine=True, track_running_stats=True)
              (2): ReLU(inplace=True)
              (3): TemporalConv(
                (conv): Conv2d(16, 16, kernel_size=(5, 1), stride=(1, 1), padding=(2, 0))
                (bn): BatchNorm2d(16, eps=1e-05, momentum=0.1, affine=True, track_running_stats=True)
              )
            )
            (1): Sequential(
              (0): Conv2d(64, 16, kernel_size=(1, 1), stride=(1, 1))
              (1): BatchNorm2d(16, eps=1e-05, momentum=0.1, affine=True, track_running_stats=True)
              (2): ReLU(inplace=True)
              (3): TemporalConv(
                (conv): Conv2d(16, 16, kernel_size=(5, 1), stride=(1, 1), padding=(4, 0), dilation=(2, 1))
                (bn): BatchNorm2d(16, eps=1e-05, momentum=0.1, affine=True, track_running_stats=True)
              )
            )
            (2): Sequential(
              (0): Conv2d(64, 16, kernel_size=(1, 1), stride=(1, 1))
              (1): BatchNorm2d(16, eps=1e-05, momentum=0.1, affine=True, track_running_stats=True)
              (2): ReLU(inplace=True)
              (3): MaxPool2d(kernel_size=(3, 1), stride=(1, 1), padding=(1, 0), dilation=1, ceil_mode=False)
              (4): BatchNorm2d(16, eps=1e-05, momentum=0.1, affine=True, track_running_stats=True)
            )
            (3): Sequential(
              (0): Conv2d(64, 16, kernel_size=(1, 1), stride=(1, 1))
              (1): BatchNorm2d(16, eps=1e-05, momentum=0.1, affine=True, track_running_stats=True)
            )
          )
        )
        (relu): ReLU(inplace=True)
        (residual): unit_tcn(
          (conv): Conv2d(3, 64, kernel_size=(1, 1), stride=(1, 1))
          (bn): BatchNorm2d(64, eps=1e-05, momentum=0.1, affine=True, track_running_stats=True)
          (relu): ReLU(inplace=True)
        )
      )
    )
    (t_embedding): Sequential(
      (0): Linear(in_features=150, out_features=512, bias=True)
      (1): LayerNorm((512,), eps=1e-05, elementwise_affine=True)
      (2): ReLU(inplace=True)
      (3): Linear(in_features=512, out_features=512, bias=True)
    )
    (s_embedding): Sequential(
      (0): Linear(in_features=192, out_features=512, bias=True)
      (1): LayerNorm((512,), eps=1e-05, elementwise_affine=True)
      (2): ReLU(inplace=True)
      (3): Linear(in_features=512, out_features=512, bias=True)
    )
    (sam): SAM(
      (linear): Linear(in_features=1024, out_features=512, bias=True)
    )
    (t_encoder): TransformerEncoder(
      (layers): ModuleList(
        (0): TransformerEncoderLayer(
          (self_attn): MultiheadAttention(
            (out_proj): NonDynamicallyQuantizableLinear(in_features=512, out_features=512, bias=True)
          )
          (linear1): Linear(in_features=512, out_features=512, bias=True)
          (dropout): Dropout(p=0.1, inplace=False)
          (linear2): Linear(in_features=512, out_features=512, bias=True)
          (norm1): LayerNorm((512,), eps=1e-05, elementwise_affine=True)
          (norm2): LayerNorm((512,), eps=1e-05, elementwise_affine=True)
          (dropout1): Dropout(p=0.1, inplace=False)
          (dropout2): Dropout(p=0.1, inplace=False)
        )
      )
    )
    (tl_encoder): ModuleList(
      (0-3): 4 x TransformerEncoder(
        (layers): ModuleList(
          (0): TransformerEncoderLayer(
            (self_attn): MultiheadAttention(
              (out_proj): NonDynamicallyQuantizableLinear(in_features=512, out_features=512, bias=True)
            )
            (linear1): Linear(in_features=512, out_features=512, bias=True)
            (dropout): Dropout(p=0.1, inplace=False)
            (linear2): Linear(in_features=512, out_features=512, bias=True)
            (norm1): LayerNorm((512,), eps=1e-05, elementwise_affine=True)
            (norm2): LayerNorm((512,), eps=1e-05, elementwise_affine=True)
            (dropout1): Dropout(p=0.1, inplace=False)
            (dropout2): Dropout(p=0.1, inplace=False)
          )
        )
      )
    )
    (tl1_encoder): TransformerEncoder(
      (layers): ModuleList(
        (0): TransformerEncoderLayer(
          (self_attn): MultiheadAttention(
            (out_proj): NonDynamicallyQuantizableLinear(in_features=512, out_features=512, bias=True)
          )
          (linear1): Linear(in_features=512, out_features=512, bias=True)
          (dropout): Dropout(p=0.1, inplace=False)
          (linear2): Linear(in_features=512, out_features=512, bias=True)
          (norm1): LayerNorm((512,), eps=1e-05, elementwise_affine=True)
          (norm2): LayerNorm((512,), eps=1e-05, elementwise_affine=True)
          (dropout1): Dropout(p=0.1, inplace=False)
          (dropout2): Dropout(p=0.1, inplace=False)
        )
      )
    )
    (s_encoder): TransformerEncoder(
      (layers): ModuleList(
        (0): TransformerEncoderLayer(
          (self_attn): MultiheadAttention(
            (out_proj): NonDynamicallyQuantizableLinear(in_features=512, out_features=512, bias=True)
          )
          (linear1): Linear(in_features=512, out_features=512, bias=True)
          (dropout): Dropout(p=0.1, inplace=False)
          (linear2): Linear(in_features=512, out_features=512, bias=True)
          (norm1): LayerNorm((512,), eps=1e-05, elementwise_affine=True)
          (norm2): LayerNorm((512,), eps=1e-05, elementwise_affine=True)
          (dropout1): Dropout(p=0.1, inplace=False)
          (dropout2): Dropout(p=0.1, inplace=False)
        )
      )
    )
    (sl_encoder): ModuleList(
      (0-4): 5 x TransformerEncoder(
        (layers): ModuleList(
          (0): TransformerEncoderLayer(
            (self_attn): MultiheadAttention(
              (out_proj): NonDynamicallyQuantizableLinear(in_features=512, out_features=512, bias=True)
            )
            (linear1): Linear(in_features=512, out_features=512, bias=True)
            (dropout): Dropout(p=0.1, inplace=False)
            (linear2): Linear(in_features=512, out_features=512, bias=True)
            (norm1): LayerNorm((512,), eps=1e-05, elementwise_affine=True)
            (norm2): LayerNorm((512,), eps=1e-05, elementwise_affine=True)
            (dropout1): Dropout(p=0.1, inplace=False)
            (dropout2): Dropout(p=0.1, inplace=False)
          )
        )
      )
    )
    (sl1_encoder): TransformerEncoder(
      (layers): ModuleList(
        (0): TransformerEncoderLayer(
          (self_attn): MultiheadAttention(
            (out_proj): NonDynamicallyQuantizableLinear(in_features=512, out_features=512, bias=True)
          )
          (linear1): Linear(in_features=512, out_features=512, bias=True)
          (dropout): Dropout(p=0.1, inplace=False)
          (linear2): Linear(in_features=512, out_features=512, bias=True)
          (norm1): LayerNorm((512,), eps=1e-05, elementwise_affine=True)
          (norm2): LayerNorm((512,), eps=1e-05, elementwise_affine=True)
          (dropout1): Dropout(p=0.1, inplace=False)
          (dropout2): Dropout(p=0.1, inplace=False)
        )
      )
    )
  )
  (fc): Linear(in_features=2048, out_features=60, bias=True)
)
options {'t_input_size': 150, 's_input_size': 192, 'hidden_size': 512, 'num_head': 16, 'num_class': 60} {'data_path': './data/NTU-RGB-D-60-AGCN/xsub/train_data_joint.npy', 'label_path': './data/NTU-RGB-D-60-AGCN/xsub/train_label.pkl', 'num_frame_path': './data/NTU-RGB-D-60-AGCN/xsub/train_num_frame.npy', 'l_ratio': [0.95], 'input_size': 64, 'input_representation': 'joint'} {'data_path': './data/NTU-RGB-D-60-AGCN/xsub/val_data_joint.npy', 'label_path': './data/NTU-RGB-D-60-AGCN/xsub/val_label.pkl', 'num_frame_path': './data/NTU-RGB-D-60-AGCN/xsub/val_num_frame.npy', 'l_ratio': [0.95], 'input_size': 64, 'input_representation': 'joint'}
…
=> loading checkpoint './checkpoints_distill/ntu60_xsub_joint/checkpoint_0450.pth.tar'
message _IncompatibleKeys(missing_keys=['fc.weight', 'fc.bias'], unexpected_keys=['t_proj.weight', 't_proj.bias', 's_proj.weight', 's_proj.bias', 'sl_proj.weight', 'sl_proj.bias', 'tl_proj.weight', 'tl_proj.bias'])
=> loaded pre-trained model './checkpoints_distill/ntu60_xsub_joint/checkpoint_0450.pth.tar'
Number of parameter: 25.44M
optimize parameters lr 0.1
(6720, 3, 300, 25, 2) 6720 6720
l_ratio [0.95]
(16560, 3, 300, 25, 2) 16560 16560
l_ratio [0.95]
DownstreamEncoder(
  (st_encoder): STEncoder_classification(
    (gcn): Model(
      (data_bn): BatchNorm1d(150, eps=1e-05, momentum=0.1, affine=True, track_running_stats=True)
      (l1): TCN_GCN_unit(
        (gcn1): unit_gcn(
          (convs): ModuleList(
            (0-2): 3 x CTRGC(
              (conv1): Conv2d(3, 8, kernel_size=(1, 1), stride=(1, 1))
              (conv2): Conv2d(3, 8, kernel_size=(1, 1), stride=(1, 1))
              (conv3): Conv2d(3, 64, kernel_size=(1, 1), stride=(1, 1))
              (conv4): Conv2d(8, 64, kernel_size=(1, 1), stride=(1, 1))
              (tanh): Tanh()
            )
          )
          (down): Sequential(
            (0): Conv2d(3, 64, kernel_size=(1, 1), stride=(1, 1))
            (1): BatchNorm2d(64, eps=1e-05, momentum=0.1, affine=True, track_running_stats=True)
          )
          (bn): BatchNorm2d(64, eps=1e-05, momentum=0.1, affine=True, track_running_stats=True)
          (soft): Softmax(dim=-2)
          (relu): ReLU(inplace=True)
        )
        (tcn1): MultiScale_TemporalConv(
          (branches): ModuleList(
            (0): Sequential(
              (0): Conv2d(64, 16, kernel_size=(1, 1), stride=(1, 1))
              (1): BatchNorm2d(16, eps=1e-05, momentum=0.1, affine=True, track_running_stats=True)
              (2): ReLU(inplace=True)
              (3): TemporalConv(
                (conv): Conv2d(16, 16, kernel_size=(5, 1), stride=(1, 1), padding=(2, 0))
                (bn): BatchNorm2d(16, eps=1e-05, momentum=0.1, affine=True, track_running_stats=True)
              )
            )
            (1): Sequential(
              (0): Conv2d(64, 16, kernel_size=(1, 1), stride=(1, 1))
              (1): BatchNorm2d(16, eps=1e-05, momentum=0.1, affine=True, track_running_stats=True)
              (2): ReLU(inplace=True)
              (3): TemporalConv(
                (conv): Conv2d(16, 16, kernel_size=(5, 1), stride=(1, 1), padding=(4, 0), dilation=(2, 1))
                (bn): BatchNorm2d(16, eps=1e-05, momentum=0.1, affine=True, track_running_stats=True)
              )
            )
            (2): Sequential(
              (0): Conv2d(64, 16, kernel_size=(1, 1), stride=(1, 1))
              (1): BatchNorm2d(16, eps=1e-05, momentum=0.1, affine=True, track_running_stats=True)
              (2): ReLU(inplace=True)
              (3): MaxPool2d(kernel_size=(3, 1), stride=(1, 1), padding=(1, 0), dilation=1, ceil_mode=False)
              (4): BatchNorm2d(16, eps=1e-05, momentum=0.1, affine=True, track_running_stats=True)
            )
            (3): Sequential(
              (0): Conv2d(64, 16, kernel_size=(1, 1), stride=(1, 1))
              (1): BatchNorm2d(16, eps=1e-05, momentum=0.1, affine=True, track_running_stats=True)
            )
          )
        )
        (relu): ReLU(inplace=True)
        (residual): unit_tcn(
          (conv): Conv2d(3, 64, kernel_size=(1, 1), stride=(1, 1))
          (bn): BatchNorm2d(64, eps=1e-05, momentum=0.1, affine=True, track_running_stats=True)
          (relu): ReLU(inplace=True)
        )
      )
    )
    (t_embedding): Sequential(
      (0): Linear(in_features=3200, out_features=512, bias=True)
      (1): LayerNorm((512,), eps=1e-05, elementwise_affine=True)
      (2): ReLU(inplace=True)
      (3): Linear(in_features=512, out_features=512, bias=True)
    )
    (s_embedding): Sequential(
      (0): Linear(in_features=4096, out_features=512, bias=True)
      (1): LayerNorm((512,), eps=1e-05, elementwise_affine=True)
      (2): ReLU(inplace=True)
      (3): Linear(in_features=512, out_features=512, bias=True)
    )
    (sam): SAM(
      (linear): Linear(in_features=1024, out_features=512, bias=True)
    )
    (t_encoder): TransformerEncoder(
      (layers): ModuleList(
        (0): TransformerEncoderLayer(
          (self_attn): MultiheadAttention(
            (out_proj): NonDynamicallyQuantizableLinear(in_features=512, out_features=512, bias=True)
          )
          (linear1): Linear(in_features=512, out_features=512, bias=True)
          (dropout): Dropout(p=0.1, inplace=False)
          (linear2): Linear(in_features=512, out_features=512, bias=True)
          (norm1): LayerNorm((512,), eps=1e-05, elementwise_affine=True)
          (norm2): LayerNorm((512,), eps=1e-05, elementwise_affine=True)
          (dropout1): Dropout(p=0.1, inplace=False)
          (dropout2): Dropout(p=0.1, inplace=False)
        )
      )
    )
    (tl_encoder): ModuleList(
      (0-3): 4 x TransformerEncoder(
        (layers): ModuleList(
          (0): TransformerEncoderLayer(
            (self_attn): MultiheadAttention(
              (out_proj): NonDynamicallyQuantizableLinear(in_features=512, out_features=512, bias=True)
            )
            (linear1): Linear(in_features=512, out_features=512, bias=True)
            (dropout): Dropout(p=0.1, inplace=False)
            (linear2): Linear(in_features=512, out_features=512, bias=True)
            (norm1): LayerNorm((512,), eps=1e-05, elementwise_affine=True)
            (norm2): LayerNorm((512,), eps=1e-05, elementwise_affine=True)
            (dropout1): Dropout(p=0.1, inplace=False)
            (dropout2): Dropout(p=0.1, inplace=False)
          )
        )
      )
    )
    (tl1_encoder): TransformerEncoder(
      (layers): ModuleList(
        (0): TransformerEncoderLayer(
          (self_attn): MultiheadAttention(
            (out_proj): NonDynamicallyQuantizableLinear(in_features=512, out_features=512, bias=True)
          )
          (linear1): Linear(in_features=512, out_features=512, bias=True)
          (dropout): Dropout(p=0.1, inplace=False)
          (linear2): Linear(in_features=512, out_features=512, bias=True)
          (norm1): LayerNorm((512,), eps=1e-05, elementwise_affine=True)
          (norm2): LayerNorm((512,), eps=1e-05, elementwise_affine=True)
          (dropout1): Dropout(p=0.1, inplace=False)
          (dropout2): Dropout(p=0.1, inplace=False)
        )
      )
    )
    (s_encoder): TransformerEncoder(
      (layers): ModuleList(
        (0): TransformerEncoderLayer(
          (self_attn): MultiheadAttention(
            (out_proj): NonDynamicallyQuantizableLinear(in_features=512, out_features=512, bias=True)
          )
          (linear1): Linear(in_features=512, out_features=512, bias=True)
          (dropout): Dropout(p=0.1, inplace=False)
          (linear2): Linear(in_features=512, out_features=512, bias=True)
          (norm1): LayerNorm((512,), eps=1e-05, elementwise_affine=True)
          (norm2): LayerNorm((512,), eps=1e-05, elementwise_affine=True)
          (dropout1): Dropout(p=0.1, inplace=False)
          (dropout2): Dropout(p=0.1, inplace=False)
        )
      )
    )
    (sl_encoder): ModuleList(
      (0-4): 5 x TransformerEncoder(
        (layers): ModuleList(
          (0): TransformerEncoderLayer(
            (self_attn): MultiheadAttention(
              (out_proj): NonDynamicallyQuantizableLinear(in_features=512, out_features=512, bias=True)
            )
            (linear1): Linear(in_features=512, out_features=512, bias=True)
            (dropout): Dropout(p=0.1, inplace=False)
            (linear2): Linear(in_features=512, out_features=512, bias=True)
            (norm1): LayerNorm((512,), eps=1e-05, elementwise_affine=True)
            (norm2): LayerNorm((512,), eps=1e-05, elementwise_affine=True)
            (dropout1): Dropout(p=0.1, inplace=False)
            (dropout2): Dropout(p=0.1, inplace=False)
          )
        )
      )
    )
    (sl1_encoder): TransformerEncoder(
      (layers): ModuleList(
        (0): TransformerEncoderLayer(
          (self_attn): MultiheadAttention(
            (out_proj): NonDynamicallyQuantizableLinear(in_features=512, out_features=512, bias=True)
          )
          (linear1): Linear(in_features=512, out_features=512, bias=True)
          (dropout): Dropout(p=0.1, inplace=False)
          (linear2): Linear(in_features=512, out_features=512, bias=True)
          (norm1): LayerNorm((512,), eps=1e-05, elementwise_affine=True)
          (norm2): LayerNorm((512,), eps=1e-05, elementwise_affine=True)
          (dropout1): Dropout(p=0.1, inplace=False)
          (dropout2): Dropout(p=0.1, inplace=False)
        )
      )
    )
  )
  (fc): Linear(in_features=2048, out_features=60, bias=True)
)DownstreamEncoder(
  (st_encoder): STEncoder_classification(
    (gcn): Model(
      (data_bn): BatchNorm1d(150, eps=1e-05, momentum=0.1, affine=True, track_running_stats=True)
      (l1): TCN_GCN_unit(
        (gcn1): unit_gcn(
          (convs): ModuleList(
            (0-2): 3 x CTRGC(
              (conv1): Conv2d(3, 8, kernel_size=(1, 1), stride=(1, 1))
              (conv2): Conv2d(3, 8, kernel_size=(1, 1), stride=(1, 1))
              (conv3): Conv2d(3, 64, kernel_size=(1, 1), stride=(1, 1))
              (conv4): Conv2d(8, 64, kernel_size=(1, 1), stride=(1, 1))
              (tanh): Tanh()
            )
          )
          (down): Sequential(
            (0): Conv2d(3, 64, kernel_size=(1, 1), stride=(1, 1))
            (1): BatchNorm2d(64, eps=1e-05, momentum=0.1, affine=True, track_running_stats=True)
          )
          (bn): BatchNorm2d(64, eps=1e-05, momentum=0.1, affine=True, track_running_stats=True)
          (soft): Softmax(dim=-2)
          (relu): ReLU(inplace=True)
        )
        (tcn1): MultiScale_TemporalConv(
          (branches): ModuleList(
            (0): Sequential(
              (0): Conv2d(64, 16, kernel_size=(1, 1), stride=(1, 1))
              (1): BatchNorm2d(16, eps=1e-05, momentum=0.1, affine=True, track_running_stats=True)
              (2): ReLU(inplace=True)
              (3): TemporalConv(
                (conv): Conv2d(16, 16, kernel_size=(5, 1), stride=(1, 1), padding=(2, 0))
                (bn): BatchNorm2d(16, eps=1e-05, momentum=0.1, affine=True, track_running_stats=True)
              )
            )
            (1): Sequential(
              (0): Conv2d(64, 16, kernel_size=(1, 1), stride=(1, 1))
              (1): BatchNorm2d(16, eps=1e-05, momentum=0.1, affine=True, track_running_stats=True)
              (2): ReLU(inplace=True)
              (3): TemporalConv(
                (conv): Conv2d(16, 16, kernel_size=(5, 1), stride=(1, 1), padding=(4, 0), dilation=(2, 1))
                (bn): BatchNorm2d(16, eps=1e-05, momentum=0.1, affine=True, track_running_stats=True)
              )
            )
            (2): Sequential(
              (0): Conv2d(64, 16, kernel_size=(1, 1), stride=(1, 1))
              (1): BatchNorm2d(16, eps=1e-05, momentum=0.1, affine=True, track_running_stats=True)
              (2): ReLU(inplace=True)
              (3): MaxPool2d(kernel_size=(3, 1), stride=(1, 1), padding=(1, 0), dilation=1, ceil_mode=False)
              (4): BatchNorm2d(16, eps=1e-05, momentum=0.1, affine=True, track_running_stats=True)
            )
            (3): Sequential(
              (0): Conv2d(64, 16, kernel_size=(1, 1), stride=(1, 1))
              (1): BatchNorm2d(16, eps=1e-05, momentum=0.1, affine=True, track_running_stats=True)
            )
          )
        )
        (relu): ReLU(inplace=True)
        (residual): unit_tcn(
          (conv): Conv2d(3, 64, kernel_size=(1, 1), stride=(1, 1))
          (bn): BatchNorm2d(64, eps=1e-05, momentum=0.1, affine=True, track_running_stats=True)
          (relu): ReLU(inplace=True)
        )
      )
    )
    (t_embedding): Sequential(
      (0): Linear(in_features=3200, out_features=2048, bias=True)
      (1): LayerNorm((2048,), eps=1e-05, elementwise_affine=True)
      (2): ReLU(inplace=True)
      (3): Linear(in_features=2048, out_features=2048, bias=True)
    )
    (s_embedding): Sequential(
      (0): Linear(in_features=4096, out_features=2048, bias=True)
      (1): LayerNorm((2048,), eps=1e-05, elementwise_affine=True)
      (2): ReLU(inplace=True)
      (3): Linear(in_features=2048, out_features=2048, bias=True)
    )
    (sam): SAM(
      (linear): Linear(in_features=4096, out_features=2048, bias=True)
    )
    (t_encoder): TransformerEncoder(
      (layers): ModuleList(
        (0): TransformerEncoderLayer(
          (self_attn): MultiheadAttention(
            (out_proj): NonDynamicallyQuantizableLinear(in_features=2048, out_features=2048, bias=True)
          )
          (linear1): Linear(in_features=2048, out_features=2048, bias=True)
          (dropout): Dropout(p=0.1, inplace=False)
          (linear2): Linear(in_features=2048, out_features=2048, bias=True)
          (norm1): LayerNorm((2048,), eps=1e-05, elementwise_affine=True)
          (norm2): LayerNorm((2048,), eps=1e-05, elementwise_affine=True)
          (dropout1): Dropout(p=0.1, inplace=False)
          (dropout2): Dropout(p=0.1, inplace=False)
        )
      )
    )
    (tl_encoder): ModuleList(
      (0-3): 4 x TransformerEncoder(
        (layers): ModuleList(
          (0): TransformerEncoderLayer(
            (self_attn): MultiheadAttention(
              (out_proj): NonDynamicallyQuantizableLinear(in_features=2048, out_features=2048, bias=True)
            )
            (linear1): Linear(in_features=2048, out_features=2048, bias=True)
            (dropout): Dropout(p=0.1, inplace=False)
            (linear2): Linear(in_features=2048, out_features=2048, bias=True)
            (norm1): LayerNorm((2048,), eps=1e-05, elementwise_affine=True)
            (norm2): LayerNorm((2048,), eps=1e-05, elementwise_affine=True)
            (dropout1): Dropout(p=0.1, inplace=False)
            (dropout2): Dropout(p=0.1, inplace=False)
          )
        )
      )
    )
    (tl1_encoder): TransformerEncoder(
      (layers): ModuleList(
        (0): TransformerEncoderLayer(
          (self_attn): MultiheadAttention(
            (out_proj): NonDynamicallyQuantizableLinear(in_features=2048, out_features=2048, bias=True)
          )
          (linear1): Linear(in_features=2048, out_features=2048, bias=True)
          (dropout): Dropout(p=0.1, inplace=False)
          (linear2): Linear(in_features=2048, out_features=2048, bias=True)
          (norm1): LayerNorm((2048,), eps=1e-05, elementwise_affine=True)
          (norm2): LayerNorm((2048,), eps=1e-05, elementwise_affine=True)
          (dropout1): Dropout(p=0.1, inplace=False)
          (dropout2): Dropout(p=0.1, inplace=False)
        )
      )
    )
    (s_encoder): TransformerEncoder(
      (layers): ModuleList(
        (0): TransformerEncoderLayer(
          (self_attn): MultiheadAttention(
            (out_proj): NonDynamicallyQuantizableLinear(in_features=2048, out_features=2048, bias=True)
          )
          (linear1): Linear(in_features=2048, out_features=2048, bias=True)
          (dropout): Dropout(p=0.1, inplace=False)
          (linear2): Linear(in_features=2048, out_features=2048, bias=True)
          (norm1): LayerNorm((2048,), eps=1e-05, elementwise_affine=True)
          (norm2): LayerNorm((2048,), eps=1e-05, elementwise_affine=True)
          (dropout1): Dropout(p=0.1, inplace=False)
          (dropout2): Dropout(p=0.1, inplace=False)
        )
      )
    )
    (sl_encoder): ModuleList(
      (0-4): 5 x TransformerEncoder(
        (layers): ModuleList(
          (0): TransformerEncoderLayer(
            (self_attn): MultiheadAttention(
              (out_proj): NonDynamicallyQuantizableLinear(in_features=2048, out_features=2048, bias=True)
            )
            (linear1): Linear(in_features=2048, out_features=2048, bias=True)
            (dropout): Dropout(p=0.1, inplace=False)
            (linear2): Linear(in_features=2048, out_features=2048, bias=True)
            (norm1): LayerNorm((2048,), eps=1e-05, elementwise_affine=True)
            (norm2): LayerNorm((2048,), eps=1e-05, elementwise_affine=True)
            (dropout1): Dropout(p=0.1, inplace=False)
            (dropout2): Dropout(p=0.1, inplace=False)
          )
        )
      )
    )
    (sl1_encoder): TransformerEncoder(
      (layers): ModuleList(
        (0): TransformerEncoderLayer(
          (self_attn): MultiheadAttention(
            (out_proj): NonDynamicallyQuantizableLinear(in_features=2048, out_features=2048, bias=True)
          )
          (linear1): Linear(in_features=2048, out_features=2048, bias=True)
          (dropout): Dropout(p=0.1, inplace=False)
          (linear2): Linear(in_features=2048, out_features=2048, bias=True)
          (norm1): LayerNorm((2048,), eps=1e-05, elementwise_affine=True)
          (norm2): LayerNorm((2048,), eps=1e-05, elementwise_affine=True)
          (dropout1): Dropout(p=0.1, inplace=False)
          (dropout2): Dropout(p=0.1, inplace=False)
        )
      )
    )
  )
  (fc): Linear(in_features=8192, out_features=60, bias=True)
)
options {'t_input_size': 3200, 's_input_size': 4096, 'hidden_size': 2048, 'num_head': 16, 'num_class': 60} {'data_path': './data/NTU-RGB-D-60-10classnew/xsub/train_data_joint.npy', 'label_path': './data/NTU-RGB-D-60-10classnew/xsub/train_label.pkl', 'num_frame_path': './data/NTU-RGB-D-60-10classnew/xsub/train_num_frame.npy', 'l_ratio': [0.95], 'input
…
