=> creating model
 moco parameters 2048 0.999 0.2
weights initialization finished!
weights initialization finished!
options {'data_path': './data/NTU-RGB-D-60-AGCN/xsub/train_data_joint.npy', 'num_frame_path': './data/NTU-RGB-D-60-AGCN/xsub/train_num_frame.npy', 'l_ratio': [0.1, 1], 'input_size': 64, 'input_representation': 'joint'}
ST_Net(
  (encoder_q): PretrainingEncoder(
    (st_encoder): STEncoder(
      (gcn): Model(
        (data_bn): BatchNorm1d(150, eps=1e-05, momentum=0.1, affine=True, track_running_stats=True)
        (l1): TCN_GCN_unit(
          (gcn1): unit_gcn(
            (convs): ModuleList(
              (0-2): 3 x CTRGC(
                (conv1): Conv2d(3, 8, kernel_size=(1, 1), stride=(1, 1))
                (conv2): Conv2d(3, 8, kernel_size=(1, 1), stride=(1, 1))
                (conv3): Conv2d(3, 64, kernel_size=(1, 1), stride=(1, 1))
                (conv4): Conv2d(8, 64, kernel_size=(1, 1), stride=(1, 1))
                (tanh): Tanh()
              )
            )
            (down): Sequential(
              (0): Conv2d(3, 64, kernel_size=(1, 1), stride=(1, 1))
              (1): BatchNorm2d(64, eps=1e-05, momentum=0.1, affine=True, track_running_stats=True)
            )
            (bn): BatchNorm2d(64, eps=1e-05, momentum=0.1, affine=True, track_running_stats=True)
            (soft): Softmax(dim=-2)
            (relu): ReLU(inplace=True)
          )
          (tcn1): MultiScale_TemporalConv(
            (branches): ModuleList(
              (0): Sequential(
                (0): Conv2d(64, 16, kernel_size=(1, 1), stride=(1, 1))
                (1): BatchNorm2d(16, eps=1e-05, momentum=0.1, affine=True, track_running_stats=True)
                (2): ReLU(inplace=True)
                (3): TemporalConv(
                  (conv): Conv2d(16, 16, kernel_size=(5, 1), stride=(1, 1), padding=(2, 0))
                  (bn): BatchNorm2d(16, eps=1e-05, momentum=0.1, affine=True, track_running_stats=True)
                )
              )
              (1): Sequential(
                (0): Conv2d(64, 16, kernel_size=(1, 1), stride=(1, 1))
                (1): BatchNorm2d(16, eps=1e-05, momentum=0.1, affine=True, track_running_stats=True)
                (2): ReLU(inplace=True)
                (3): TemporalConv(
                  (conv): Conv2d(16, 16, kernel_size=(5, 1), stride=(1, 1), padding=(4, 0), dilation=(2, 1))
                  (bn): BatchNorm2d(16, eps=1e-05, momentum=0.1, affine=True, track_running_stats=True)
                )
              )
              (2): Sequential(
                (0): Conv2d(64, 16, kernel_size=(1, 1), stride=(1, 1))
                (1): BatchNorm2d(16, eps=1e-05, momentum=0.1, affine=True, track_running_stats=True)
                (2): ReLU(inplace=True)
                (3): MaxPool2d(kernel_size=(3, 1), stride=(1, 1), padding=(1, 0), dilation=1, ceil_mode=False)
                (4): BatchNorm2d(16, eps=1e-05, momentum=0.1, affine=True, track_running_stats=True)
              )
              (3): Sequential(
                (0): Conv2d(64, 16, kernel_size=(1, 1), stride=(1, 1))
                (1): BatchNorm2d(16, eps=1e-05, momentum=0.1, affine=True, track_running_stats=True)
              )
            )
          )
          (relu): ReLU(inplace=True)
        )
        (l2): TCN_GCN_unit(
          (gcn1): unit_gcn(
            (convs): ModuleList(
              (0-2): 3 x CTRGC(
                (conv1): Conv2d(64, 8, kernel_size=(1, 1), stride=(1, 1))
                (conv2): Conv2d(64, 8, kernel_size=(1, 1), stride=(1, 1))
                (conv3): Conv2d(64, 256, kernel_size=(1, 1), stride=(1, 1))
                (conv4): Conv2d(8, 256, kernel_size=(1, 1), stride=(1, 1))
                (tanh): Tanh()
              )
            )
            (down): Sequential(
              (0): Conv2d(64, 256, kernel_size=(1, 1), stride=(1, 1))
              (1): BatchNorm2d(256, eps=1e-05, momentum=0.1, affine=True, track_running_stats=True)
            )
            (bn): BatchNorm2d(256, eps=1e-05, momentum=0.1, affine=True, track_running_stats=True)
            (soft): Softmax(dim=-2)
            (relu): ReLU(inplace=True)
          )
          (tcn1): MultiScale_TemporalConv(
            (branches): ModuleList(
              (0): Sequential(
                (0): Conv2d(256, 64, kernel_size=(1, 1), stride=(1, 1))
                (1): BatchNorm2d(64, eps=1e-05, momentum=0.1, affine=True, track_running_stats=True)
                (2): ReLU(inplace=True)
                (3): TemporalConv(
                  (conv): Conv2d(64, 64, kernel_size=(5, 1), stride=(1, 1), padding=(2, 0))
                  (bn): BatchNorm2d(64, eps=1e-05, momentum=0.1, affine=True, track_running_stats=True)
                )
              )
              (1): Sequential(
                (0): Conv2d(256, 64, kernel_size=(1, 1), stride=(1, 1))
                (1): BatchNorm2d(64, eps=1e-05, momentum=0.1, affine=True, track_running_stats=True)
                (2): ReLU(inplace=True)
                (3): TemporalConv(
                  (conv): Conv2d(64, 64, kernel_size=(5, 1), stride=(1, 1), padding=(4, 0), dilation=(2, 1))
                  (bn): BatchNorm2d(64, eps=1e-05, momentum=0.1, affine=True, track_running_stats=True)
                )
              )
              (2): Sequential(
                (0): Conv2d(256, 64, kernel_size=(1, 1), stride=(1, 1))
                (1): BatchNorm2d(64, eps=1e-05, momentum=0.1, affine=True, track_running_stats=True)
                (2): ReLU(inplace=True)
                (3): MaxPool2d(kernel_size=(3, 1), stride=(1, 1), padding=(1, 0), dilation=1, ceil_mode=False)
                (4): BatchNorm2d(64, eps=1e-05, momentum=0.1, affine=True, track_running_stats=True)
              )
              (3): Sequential(
                (0): Conv2d(256, 64, kernel_size=(1, 1), stride=(1, 1))
                (1): BatchNorm2d(64, eps=1e-05, momentum=0.1, affine=True, track_running_stats=True)
              )
            )
          )
          (relu): ReLU(inplace=True)
          (residual): unit_tcn(
            (conv): Conv2d(64, 256, kernel_size=(1, 1), stride=(1, 1))
            (bn): BatchNorm2d(256, eps=1e-05, momentum=0.1, affine=True, track_running_stats=True)
            (relu): ReLU(inplace=True)
          )
        )
        (l3): TCN_GCN_unit(
          (gcn1): unit_gcn(
            (convs): ModuleList(
              (0-2): 3 x CTRGC(
                (conv1): Conv2d(256, 32, kernel_size=(1, 1), stride=(1, 1))
                (conv2): Conv2d(256, 32, kernel_size=(1, 1), stride=(1, 1))
                (conv3): Conv2d(256, 64, kernel_size=(1, 1), stride=(1, 1))
                (conv4): Conv2d(32, 64, kernel_size=(1, 1), stride=(1, 1))
                (tanh): Tanh()
              )
            )
            (down): Sequential(
              (0): Conv2d(256, 64, kernel_size=(1, 1), stride=(1, 1))
              (1): BatchNorm2d(64, eps=1e-05, momentum=0.1, affine=True, track_running_stats=True)
            )
            (bn): BatchNorm2d(64, eps=1e-05, momentum=0.1, affine=True, track_running_stats=True)
            (soft): Softmax(dim=-2)
            (relu): ReLU(inplace=True)
          )
          (tcn1): MultiScale_TemporalConv(
            (branches): ModuleList(
              (0): Sequential(
                (0): Conv2d(64, 16, kernel_size=(1, 1), stride=(1, 1))
                (1): BatchNorm2d(16, eps=1e-05, momentum=0.1, affine=True, track_running_stats=True)
                (2): ReLU(inplace=True)
                (3): TemporalConv(
                  (conv): Conv2d(16, 16, kernel_size=(5, 1), stride=(1, 1), padding=(2, 0))
                  (bn): BatchNorm2d(16, eps=1e-05, momentum=0.1, affine=True, track_running_stats=True)
                )
              )
              (1): Sequential(
                (0): Conv2d(64, 16, kernel_size=(1, 1), stride=(1, 1))
                (1): BatchNorm2d(16, eps=1e-05, momentum=0.1, affine=True, track_running_stats=True)
                (2): ReLU(inplace=True)
                (3): TemporalConv(
                  (conv): Conv2d(16, 16, kernel_size=(5, 1), stride=(1, 1), padding=(4, 0), dilation=(2, 1))
                  (bn): BatchNorm2d(16, eps=1e-05, momentum=0.1, affine=True, track_running_stats=True)
                )
              )
              (2): Sequential(
                (0): Conv2d(64, 16, kernel_size=(1, 1), stride=(1, 1))
                (1): BatchNorm2d(16, eps=1e-05, momentum=0.1, affine=True, track_running_stats=True)
                (2): ReLU(inplace=True)
                (3): MaxPool2d(kernel_size=(3, 1), stride=(1, 1), padding=(1, 0), dilation=1, ceil_mode=False)
                (4): BatchNorm2d(16, eps=1e-05, momentum=0.1, affine=True, track_running_stats=True)
              )
              (3): Sequential(
                (0): Conv2d(64, 16, kernel_size=(1, 1), stride=(1, 1))
                (1): BatchNorm2d(16, eps=1e-05, momentum=0.1, affine=True, track_running_stats=True)
              )
            )
          )
          (relu): ReLU(inplace=True)
          (residual): unit_tcn(
            (conv): Conv2d(256, 64, kernel_size=(1, 1), stride=(1, 1))
            (bn): BatchNorm2d(64, eps=1e-05, momentum=0.1, affine=True, track_running_stats=True)
            (relu): ReLU(inplace=True)
          )
        )
      )
      (t_embedding): Sequential(
        (0): Linear(in_features=3200, out_features=512, bias=True)
        (1): LayerNorm((512,), eps=1e-05, elementwise_affine=True)
        (2): ReLU(inplace=True)
        (3): Linear(in_features=512, out_features=512, bias=True)
      )
      (s_embedding): Sequential(
        (0): Linear(in_features=4096, out_features=512, bias=True)
        (1): LayerNorm((512,), eps=1e-05, elementwise_affine=True)
        (2): ReLU(inplace=True)
        (3): Linear(in_features=512, out_features=512, bias=True)
      )
      (sam): SAM(
        (linear): Linear(in_features=1024, out_features=512, bias=True)
      )
      (t_encoder): TransformerEncoder(
        (layers): ModuleList(
          (0): TransformerEncoderLayer(
            (self_attn): MultiheadAttention(
              (out_proj): NonDynamicallyQuantizableLinear(in_features=512, out_features=512, bias=True)
            )
            (linear1): Linear(in_features=512, out_features=512, bias=True)
            (dropout): Dropout(p=0.1, inplace=False)
            (linear2): Linear(in_features=512, out_features=512, bias=True)
            (norm1): LayerNorm((512,), eps=1e-05, elementwise_affine=True)
            (norm2): LayerNorm((512,), eps=1e-05, elementwise_affine=True)
            (dropout1): Dropout(p=0.1, inplace=False)
            (dropout2): Dropout(p=0.1, inplace=False)
          )
        )
      )
      (tl_encoder): ModuleList(
        (0-3): 4 x TransformerEncoder(
          (layers): ModuleList(
            (0): TransformerEncoderLayer(
              (self_attn): MultiheadAttention(
                (out_proj): NonDynamicallyQuantizableLinear(in_features=512, out_features=512, bias=True)
              )
              (linear1): Linear(in_features=512, out_features=512, bias=True)
              (dropout): Dropout(p=0.1, inplace=False)
              (linear2): Linear(in_features=512, out_features=512, bias=True)
              (norm1): LayerNorm((512,), eps=1e-05, elementwise_affine=True)
              (norm2): LayerNorm((512,), eps=1e-05, elementwise_affine=True)
              (dropout1): Dropout(p=0.1, inplace=False)
              (dropout2): Dropout(p=0.1, inplace=False)
            )
          )
        )
      )
      (tl1_encoder): TransformerEncoder(
        (layers): ModuleList(
          (0): TransformerEncoderLayer(
            (self_attn): MultiheadAttention(
              (out_proj): NonDynamicallyQuantizableLinear(in_features=512, out_features=512, bias=True)
            )
            (linear1): Linear(in_features=512, out_features=512, bias=True)
            (dropout): Dropout(p=0.1, inplace=False)
            (linear2): Linear(in_features=512, out_features=512, bias=True)
            (norm1): LayerNorm((512,), eps=1e-05, elementwise_affine=True)
            (norm2): LayerNorm((512,), eps=1e-05, elementwise_affine=True)
            (dropout1): Dropout(p=0.1, inplace=False)
            (dropout2): Dropout(p=0.1, inplace=False)
          )
        )
      )
      (s_encoder): TransformerEncoder(
        (layers): ModuleList(
          (0): TransformerEncoderLayer(
            (self_attn): MultiheadAttention(
              (out_proj): NonDynamicallyQuantizableLinear(in_features=512, out_features=512, bias=True)
            )
            (linear1): Linear(in_features=512, out_features=512, bias=True)
            (dropout): Dropout(p=0.1, inplace=False)
            (linear2): Linear(in_features=512, out_features=512, bias=True)
            (norm1): LayerNorm((512,), eps=1e-05, elementwise_affine=True)
            (norm2): LayerNorm((512,), eps=1e-05, elementwise_affine=True)
            (dropout1): Dropout(p=0.1, inplace=False)
            (dropout2): Dropout(p=0.1, inplace=False)
          )
        )
      )
      (sl_encoder): ModuleList(
        (0-4): 5 x TransformerEncoder(
          (layers): ModuleList(
            (0): TransformerEncoderLayer(
              (self_attn): MultiheadAttention(
                (out_proj): NonDynamicallyQuantizableLinear(in_features=512, out_features=512, bias=True)
              )
              (linear1): Linear(in_features=512, out_features=512, bias=True)
              (dropout): Dropout(p=0.1, inplace=False)
              (linear2): Linear(in_features=512, out_features=512, bias=True)
              (norm1): LayerNorm((512,), eps=1e-05, elementwise_affine=True)
              (norm2): LayerNorm((512,), eps=1e-05, elementwise_affine=True)
              (dropout1): Dropout(p=0.1, inplace=False)
              (dropout2): Dropout(p=0.1, inplace=False)
            )
          )
        )
      )
      (sl1_encoder): TransformerEncoder(
        (layers): ModuleList(
          (0): TransformerEncoderLayer(
            (self_attn): MultiheadAttention(
              (out_proj): NonDynamicallyQuantizableLinear(in_features=512, out_features=512, bias=True)
            )
            (linear1): Linear(in_features=512, out_features=512, bias=True)
            (dropout): Dropout(p=0.1, inplace=False)
            (linear2): Linear(in_features=512, out_features=512, bias=True)
            (norm1): LayerNorm((512,), eps=1e-05, elementwise_affine=True)
            (norm2): LayerNorm((512,), eps=1e-05, elementwise_affine=True)
            (dropout1): Dropout(p=0.1, inplace=False)
            (dropout2): Dropout(p=0.1, inplace=False)
          )
        )
      )
    )
    (t_proj): Sequential(
      (0): Linear(in_features=512, out_features=512, bias=True)
      (1): ReLU(inplace=True)
      (2): Linear(in_features=512, out_features=128, bias=True)
    )
    (s_proj): Sequential(
      (0): Linear(in_features=512, out_features=512, bias=True)
      (1): ReLU(inplace=True)
      (2): Linear(in_features=512, out_features=128, bias=True)
    )
    (sl_proj): Sequential(
      (0): Linear(in_features=512, out_features=512, bias=True)
      (1): ReLU(inplace=True)
      (2): Linear(in_features=512, out_features=128, bias=True)
    )
    (tl_proj): Sequential(
      (0): Linear(in_features=512, out_features=512, bias=True)
      (1): ReLU(inplace=True)
      (2): Linear(in_features=512, out_features=128, bias=True)
    )
    (sd_proj): Sequential(
      (0): Linear(in_features=1024, out_features=512, bias=True)
      (1): ReLU(inplace=True)
      (2): Linear(in_features=512, out_features=128, bias=True)
    )
    (td_proj): Sequential(
      (0): Linear(in_features=1024, out_features=512, bias=True)
      (1): ReLU(inplace=True)
      (2): Linear(in_features=512, out_features=128, bias=True)
    )
  )
  (encoder_k): PretrainingEncoder(
    (st_encoder): STEncoder(
      (gcn): Model(
        (data_bn): BatchNorm1d(150, eps=1e-05, momentum=0.1, affine=True, track_running_stats=True)
        (l1): TCN_GCN_unit(
          (gcn1): unit_gcn(
            (convs): ModuleList(
              (0-2): 3 x CTRGC(
                (conv1): Conv2d(3, 8, kernel_size=(1, 1), stride=(1, 1))
                (conv2): Conv2d(3, 8, kernel_size=(1, 1), stride=(1, 1))
                (conv3): Conv2d(3, 64, kernel_size=(1, 1), stride=(1, 1))
                (conv4): Conv2d(8, 64, kernel_size=(1, 1), stride=(1, 1))
                (tanh): Tanh()
              )
            )
            (down): Sequential(
              (0): Conv2d(3, 64, kernel_size=(1, 1), stride=(1, 1))
              (1): BatchNorm2d(64, eps=1e-05, momentum=0.1, affine=True, track_running_stats=True)
            )
            (bn): BatchNorm2d(64, eps=1e-05, momentum=0.1, affine=True, track_running_stats=True)
            (soft): Softmax(dim=-2)
            (relu): ReLU(inplace=True)
          )
          (tcn1): MultiScale_TemporalConv(
            (branches): ModuleList(
              (0): Sequential(
                (0): Conv2d(64, 16, kernel_size=(1, 1), stride=(1, 1))
                (1): BatchNorm2d(16, eps=1e-05, momentum=0.1, affine=True, track_running_stats=True)
                (2): ReLU(inplace=True)
                (3): TemporalConv(
                  (conv): Conv2d(16, 16, kernel_size=(5, 1), stride=(1, 1), padding=(2, 0))
                  (bn): BatchNorm2d(16, eps=1e-05, momentum=0.1, affine=True, track_running_stats=True)
                )
              )
              (1): Sequential(
                (0): Conv2d(64, 16, kernel_size=(1, 1), stride=(1, 1))
                (1): BatchNorm2d(16, eps=1e-05, momentum=0.1, affine=True, track_running_stats=True)
                (2): ReLU(inplace=True)
                (3): TemporalConv(
                  (conv): Conv2d(16, 16, kernel_size=(5, 1), stride=(1, 1), padding=(4, 0), dilation=(2, 1))
                  (bn): BatchNorm2d(16, eps=1e-05, momentum=0.1, affine=True, track_running_stats=True)
                )
              )
              (2): Sequential(
                (0): Conv2d(64, 16, kernel_size=(1, 1), stride=(1, 1))
                (1): BatchNorm2d(16, eps=1e-05, momentum=0.1, affine=True, track_running_stats=True)
                (2): ReLU(inplace=True)
                (3): MaxPool2d(kernel_size=(3, 1), stride=(1, 1), padding=(1, 0), dilation=1, ceil_mode=False)
                (4): BatchNorm2d(16, eps=1e-05, momentum=0.1, affine=True, track_running_stats=True)
              )
              (3): Sequential(
                (0): Conv2d(64, 16, kernel_size=(1, 1), stride=(1, 1))
                (1): BatchNorm2d(16, eps=1e-05, momentum=0.1, affine=True, track_running_stats=True)
              )
            )
          )
          (relu): ReLU(inplace=True)
        )
        (l2): TCN_GCN_unit(
          (gcn1): unit_gcn(
            (convs): ModuleList(
              (0-2): 3 x CTRGC(
                (conv1): Conv2d(64, 8, kernel_size=(1, 1), stride=(1, 1))
                (conv2): Conv2d(64, 8, kernel_size=(1, 1), stride=(1, 1))
                (conv3): Conv2d(64, 256, kernel_size=(1, 1), stride=(1, 1))
                (conv4): Conv2d(8, 256, kernel_size=(1, 1), stride=(1, 1))
                (tanh): Tanh()
              )
            )
            (down): Sequential(
              (0): Conv2d(64, 256, kernel_size=(1, 1), stride=(1, 1))
              (1): BatchNorm2d(256, eps=1e-05, momentum=0.1, affine=True, track_running_stats=True)
            )
            (bn): BatchNorm2d(256, eps=1e-05, momentum=0.1, affine=True, track_running_stats=True)
            (soft): Softmax(dim=-2)
            (relu): ReLU(inplace=True)
          )
          (tcn1): MultiScale_TemporalConv(
            (branches): ModuleList(
              (0): Sequential(
                (0): Conv2d(256, 64, kernel_size=(1, 1), stride=(1, 1))
                (1): BatchNorm2d(64, eps=1e-05, momentum=0.1, affine=True, track_running_stats=True)
                (2): ReLU(inplace=True)
                (3): TemporalConv(
                  (conv): Conv2d(64, 64, kernel_size=(5, 1), stride=(1, 1), padding=(2, 0))
                  (bn): BatchNorm2d(64, eps=1e-05, momentum=0.1, affine=True, track_running_stats=True)
                )
              )
              (1): Sequential(
                (0): Conv2d(256, 64, kernel_size=(1, 1), stride=(1, 1))
                (1): BatchNorm2d(64, eps=1e-05, momentum=0.1, affine=True, track_running_stats=True)
                (2): ReLU(inplace=True)
                (3): TemporalConv(
                  (conv): Conv2d(64, 64, kernel_size=(5, 1), stride=(1, 1), padding=(4, 0), dilation=(2, 1))
                  (bn): BatchNorm2d(64, eps=1e-05, momentum=0.1, affine=True, track_running_stats=True)
                )
              )
              (2): Sequential(
                (0): Conv2d(256, 64, kernel_size=(1, 1), stride=(1, 1))
                (1): BatchNorm2d(64, eps=1e-05, momentum=0.1, affine=True, track_running_stats=True)
                (2): ReLU(inplace=True)
                (3): MaxPool2d(kernel_size=(3, 1), stride=(1, 1), padding=(1, 0), dilation=1, ceil_mode=False)
                (4): BatchNorm2d(64, eps=1e-05, momentum=0.1, affine=True, track_running_stats=True)
              )
              (3): Sequential(
                (0): Conv2d(256, 64, kernel_size=(1, 1), stride=(1, 1))
                (1): BatchNorm2d(64, eps=1e-05, momentum=0.1, affine=True, track_running_stats=True)
              )
            )
          )
          (relu): ReLU(inplace=True)
          (residual): unit_tcn(
            (conv): Conv2d(64, 256, kernel_size=(1, 1), stride=(1, 1))
            (bn): BatchNorm2d(256, eps=1e-05, momentum=0.1, affine=True, track_running_stats=True)
            (relu): ReLU(inplace=True)
          )
        )
        (l3): TCN_GCN_unit(
          (gcn1): unit_gcn(
            (convs): ModuleList(
              (0-2): 3 x CTRGC(
                (conv1): Conv2d(256, 32, kernel_size=(1, 1), stride=(1, 1))
                (conv2): Conv2d(256, 32, kernel_size=(1, 1), stride=(1, 1))
                (conv3): Conv2d(256, 64, kernel_size=(1, 1), stride=(1, 1))
                (conv4): Conv2d(32, 64, kernel_size=(1, 1), stride=(1, 1))
                (tanh): Tanh()
              )
            )
            (down): Sequential(
              (0): Conv2d(256, 64, kernel_size=(1, 1), stride=(1, 1))
              (1): BatchNorm2d(64, eps=1e-05, momentum=0.1, affine=True, track_running_stats=True)
            )
            (bn): BatchNorm2d(64, eps=1e-05, momentum=0.1, affine=True, track_running_stats=True)
            (soft): Softmax(dim=-2)
            (relu): ReLU(inplace=True)
          )
          (tcn1): MultiScale_TemporalConv(
            (branches): ModuleList(
              (0): Sequential(
                (0): Conv2d(64, 16, kernel_size=(1, 1), stride=(1, 1))
                (1): BatchNorm2d(16, eps=1e-05, momentum=0.1, affine=True, track_running_stats=True)
                (2): ReLU(inplace=True)
                (3): TemporalConv(
                  (conv): Conv2d(16, 16, kernel_size=(5, 1), stride=(1, 1), padding=(2, 0))
                  (bn): BatchNorm2d(16, eps=1e-05, momentum=0.1, affine=True, track_running_stats=True)
                )
              )
              (1): Sequential(
                (0): Conv2d(64, 16, kernel_size=(1, 1), stride=(1, 1))
                (1): BatchNorm2d(16, eps=1e-05, momentum=0.1, affine=True, track_running_stats=True)
                (2): ReLU(inplace=True)
                (3): TemporalConv(
                  (conv): Conv2d(16, 16, kernel_size=(5, 1), stride=(1, 1), padding=(4, 0), dilation=(2, 1))
                  (bn): BatchNorm2d(16, eps=1e-05, momentum=0.1, affine=True, track_running_stats=True)
                )
              )
              (2): Sequential(
                (0): Conv2d(64, 16, kernel_size=(1, 1), stride=(1, 1))
                (1): BatchNorm2d(16, eps=1e-05, momentum=0.1, affine=True, track_running_stats=True)
                (2): ReLU(inplace=True)
                (3): MaxPool2d(kernel_size=(3, 1), stride=(1, 1), padding=(1, 0), dilation=1, ceil_mode=False)
                (4): BatchNorm2d(16, eps=1e-05, momentum=0.1, affine=True, track_running_stats=True)
              )
              (3): Sequential(
                (0): Conv2d(64, 16, kernel_size=(1, 1), stride=(1, 1))
                (1): BatchNorm2d(16, eps=1e-05, momentum=0.1, affine=True, track_running_stats=True)
              )
            )
          )
          (relu): ReLU(inplace=True)
          (residual): unit_tcn(
            (conv): Conv2d(256, 64, kernel_size=(1, 1), stride=(1, 1))
            (bn): BatchNorm2d(64, eps=1e-05, momentum=0.1, affine=True, track_running_stats=True)
            (relu): ReLU(inplace=True)
          )
        )
      )
      (t_embedding): Sequential(
        (0): Linear(in_features=3200, out_features=512, bias=True)
        (1): LayerNorm((512,), eps=1e-05, elementwise_affine=True)
        (2): ReLU(inplace=True)
        (3): Linear(in_features=512, out_features=512, bias=True)
      )
      (s_embedding): Sequential(
        (0): Linear(in_features=4096, out_features=512, bias=True)
        (1): LayerNorm((512,), eps=1e-05, elementwise_affine=True)
        (2): ReLU(inplace=True)
        (3): Linear(in_features=512, out_features=512, bias=True)
      )
      (sam): SAM(
        (linear): Linear(in_features=1024, out_features=512, bias=True)
      )
      (t_encoder): TransformerEncoder(
        (layers): ModuleList(
          (0): TransformerEncoderLayer(
            (self_attn): MultiheadAttention(
              (out_proj): NonDynamicallyQuantizableLinear(in_features=512, out_features=512, bias=True)
            )
            (linear1): Linear(in_features=512, out_features=512, bias=True)
            (dropout): Dropout(p=0.1, inplace=False)
            (linear2): Linear(in_features=512, out_features=512, bias=True)
            (norm1): LayerNorm((512,), eps=1e-05, elementwise_affine=True)
            (norm2): LayerNorm((512,), eps=1e-05, elementwise_affine=True)
            (dropout1): Dropout(p=0.1, inplace=False)
            (dropout2): Dropout(p=0.1, inplace=False)
          )
        )
      )
      (tl_encoder): ModuleList(
        (0-3): 4 x TransformerEncoder(
          (layers): ModuleList(
            (0): TransformerEncoderLayer(
              (self_attn): MultiheadAttention(
                (out_proj): NonDynamicallyQuantizableLinear(in_features=512, out_features=512, bias=True)
              )
              (linear1): Linear(in_features=512, out_features=512, bias=True)
              (dropout): Dropout(p=0.1, inplace=False)
              (linear2): Linear(in_features=512, out_features=512, bias=True)
              (norm1): LayerNorm((512,), eps=1e-05, elementwise_affine=True)
              (norm2): LayerNorm((512,), eps=1e-05, elementwise_affine=True)
              (dropout1): Dropout(p=0.1, inplace=False)
              (dropout2): Dropout(p=0.1, inplace=False)
            )
          )
        )
      )
      (tl1_encoder): TransformerEncoder(
        (layers): ModuleList(
          (0): TransformerEncoderLayer(
            (self_attn): MultiheadAttention(
              (out_proj): NonDynamicallyQuantizableLinear(in_features=512, out_features=512, bias=True)
            )
            (linear1): Linear(in_features=512, out_features=512, bias=True)
            (dropout): Dropout(p=0.1, inplace=False)
            (linear2): Linear(in_features=512, out_features=512, bias=True)
            (norm1): LayerNorm((512,), eps=1e-05, elementwise_affine=True)
            (norm2): LayerNorm((512,), eps=1e-05, elementwise_affine=True)
            (dropout1): Dropout(p=0.1, inplace=False)
            (dropout2): Dropout(p=0.1, inplace=False)
          )
        )
      )
      (s_encoder): TransformerEncoder(
        (layers): ModuleList(
          (0): TransformerEncoderLayer(
            (self_attn): MultiheadAttention(
              (out_proj): NonDynamicallyQuantizableLinear(in_features=512, out_features=512, bias=True)
            )
            (linear1): Linear(in_features=512, out_features=512, bias=True)
            (dropout): Dropout(p=0.1, inplace=False)
            (linear2): Linear(in_features=512, out_features=512, bias=True)
            (norm1): LayerNorm((512,), eps=1e-05, elementwise_affine=True)
            (norm2): LayerNorm((512,), eps=1e-05, elementwise_affine=True)
            (dropout1): Dropout(p=0.1, inplace=False)
            (dropout2): Dropout(p=0.1, inplace=False)
          )
        )
      )
      (sl_encoder): ModuleList(
        (0-4): 5 x TransformerEncoder(
          (layers): ModuleList(
            (0): TransformerEncoderLayer(
              (self_attn): MultiheadAttention(
                (out_proj): NonDynamicallyQuantizableLinear(in_features=512, out_features=512, bias=True)
              )
              (linear1): Linear(in_features=512, out_features=512, bias=True)
              (dropout): Dropout(p=0.1, inplace=False)
              (linear2): Linear(in_features=512, out_features=512, bias=True)
              (norm1): LayerNorm((512,), eps=1e-05, elementwise_affine=True)
              (norm2): LayerNorm((512,), eps=1e-05, elementwise_affine=True)
              (dropout1): Dropout(p=0.1, inplace=False)
              (dropout2): Dropout(p=0.1, inplace=False)
            )
          )
        )
      )
      (sl1_encoder): TransformerEncoder(
        (layers): ModuleList(
          (0): TransformerEncoderLayer(
            (self_attn): MultiheadAttention(
              (out_proj): NonDynamicallyQuantizableLinear(in_features=512, out_features=512, bias=True)
            )
            (linear1): Linear(in_features=512, out_features=512, bias=True)
            (dropout): Dropout(p=0.1, inplace=False)
            (linear2): Linear(in_features=512, out_features=512, bias=True)
            (norm1): LayerNorm((512,), eps=1e-05, elementwise_affine=True)
            (norm2): LayerNorm((512,), eps=1e-05, elementwise_affine=True)
            (dropout1): Dropout(p=0.1, inplace=False)
            (dropout2): Dropout(p=0.1, inplace=False)
          )
        )
      )
    )
    (t_proj): Sequential(
      (0): Linear(in_features=512, out_features=512, bias=True)
      (1): ReLU(inplace=True)
      (2): Linear(in_features=512, out_features=128, bias=True)
    )
    (s_proj): Sequential(
      (0): Linear(in_features=512, out_features=512, bias=True)
      (1): ReLU(inplace=True)
      (2): Linear(in_features=512, out_features=128, bias=True)
    )
    (sl_proj): Sequential(
      (0): Linear(in_features=512, out_features=512, bias=True)
      (1): ReLU(inplace=True)
      (2): Linear(in_features=512, out_features=128, bias=True)
    )
    (tl_proj): Sequential(
      (0): Linear(in_features=512, out_features=512, bias=True)
      (1): ReLU(inplace=True)
      (2): Linear(in_features=512, out_features=128, bias=True)
    )
    (sd_proj): Sequential(
      (0): Linear(in_features=1024, out_features=512, bias=True)
      (1): ReLU(inplace=True)
      (2): Linear(in_features=512, out_features=128, bias=True)
    )
    (td_proj): Sequential(
      (0): Linear(in_features=1024, out_features=512, bias=True)
      (1): ReLU(inplace=True)
      (2): Linear(in_features=512, out_features=128, bias=True)
    )
  )
)
(40320, 3, 300, 25, 2) 40320
l_ratio [0.1, 1]
Epoch: [0] Lr_rate [0.01][  0/630]	Time  2.554 ( 2.554)	Loss 4.5975e+01 (4.5975e+01)	Acc@1   0.00 (  0.00)
Epoch: [0] Lr_rate [0.01][ 10/630]	Time  0.257 ( 0.475)	Loss 3.8899e+01 (3.6723e+01)	Acc@1   0.00 (  0.85)
=> creating model
 moco parameters 2048 0.999 0.2
weights initialization finished!
weights initialization finished!
options {'data_path': './data/NTU-RGB-D-60-AGCN/xsub/train_data_joint.npy', 'num_frame_path': './data/NTU-RGB-D-60-AGCN/xsub/train_num_frame.npy', 'l_ratio': [0.1, 1], 'input_size': 64, 'input_representation': 'joint'}
ST_Net(
  (encoder_q): PretrainingEncoder(
    (st_encoder): STEncoder(
      (gcn): Model(
        (data_bn): BatchNorm1d(150, eps=1e-05, momentum=0.1, affine=True, track_running_stats=True)
        (l1): TCN_GCN_unit(
          (gcn1): unit_gcn(
            (convs): ModuleList(
              (0-2): 3 x CTRGC(
                (conv1): Conv2d(3, 8, kernel_size=(1, 1), stride=(1, 1))
                (conv2): Conv2d(3, 8, kernel_size=(1, 1), stride=(1, 1))
                (conv3): Conv2d(3, 64, kernel_size=(1, 1), stride=(1, 1))
                (conv4): Conv2d(8, 64, kernel_size=(1, 1), stride=(1, 1))
                (tanh): Tanh()
              )
            )
            (down): Sequential(
              (0): Conv2d(3, 64, kernel_size=(1, 1), stride=(1, 1))
              (1): BatchNorm2d(64, eps=1e-05, momentum=0.1, affine=True, track_running_stats=True)
            )
            (bn): BatchNorm2d(64, eps=1e-05, momentum=0.1, affine=True, track_running_stats=True)
            (soft): Softmax(dim=-2)
            (relu): ReLU(inplace=True)
          )
          (tcn1): MultiScale_TemporalConv(
            (branches): ModuleList(
              (0): Sequential(
                (0): Conv2d(64, 16, kernel_size=(1, 1), stride=(1, 1))
                (1): BatchNorm2d(16, eps=1e-05, momentum=0.1, affine=True, track_running_stats=True)
                (2): ReLU(inplace=True)
                (3): TemporalConv(
                  (conv): Conv2d(16, 16, kernel_size=(5, 1), stride=(1, 1), padding=(2, 0))
                  (bn): BatchNorm2d(16, eps=1e-05, momentum=0.1, affine=True, track_running_stats=True)
                )
              )
              (1): Sequential(
                (0): Conv2d(64, 16, kernel_size=(1, 1), stride=(1, 1))
                (1): BatchNorm2d(16, eps=1e-05, momentum=0.1, affine=True, track_running_stats=True)
                (2): ReLU(inplace=True)
                (3): TemporalConv(
                  (conv): Conv2d(16, 16, kernel_size=(5, 1), stride=(1, 1), padding=(4, 0), dilation=(2, 1))
                  (bn): BatchNorm2d(16, eps=1e-05, momentum=0.1, affine=True, track_running_stats=True)
                )
              )
              (2): Sequential(
                (0): Conv2d(64, 16, kernel_size=(1, 1), stride=(1, 1))
                (1): BatchNorm2d(16, eps=1e-05, momentum=0.1, affine=True, track_running_stats=True)
                (2): ReLU(inplace=True)
                (3): MaxPool2d(kernel_size=(3, 1), stride=(1, 1), padding=(1, 0), dilation=1, ceil_mode=False)
                (4): BatchNorm2d(16, eps=1e-05, momentum=0.1, affine=True, track_running_stats=True)
              )
              (3): Sequential(
                (0): Conv2d(64, 16, kernel_size=(1, 1), stride=(1, 1))
                (1): BatchNorm2d(16, eps=1e-05, momentum=0.1, affine=True, track_running_stats=True)
              )
            )
          )
          (relu): ReLU(inplace=True)
          (residual): unit_tcn(
            (conv): Conv2d(3, 64, kernel_size=(1, 1), stride=(1, 1))
            (bn): BatchNorm2d(64, eps=1e-05, momentum=0.1, affine=True, track_running_stats=True)
            (relu): ReLU(inplace=True)
          )
        )
      )
      (t_embedding): Sequential(
        (0): Linear(in_features=3200, out_features=512, bias=True)
        (1): LayerNorm((512,), eps=1e-05, elementwise_affine=True)
        (2): ReLU(inplace=True)
        (3): Linear(in_features=512, out_features=512, bias=True)
      )
      (s_embedding): Sequential(
        (0): Linear(in_features=4096, out_features=512, bias=True)
        (1): LayerNorm((512,), eps=1e-05, elementwise_affine=True)
        (2): ReLU(inplace=True)
        (3): Linear(in_features=512, out_features=512, bias=True)
      )
      (sam): SAM(
        (linear): Linear(in_features=1024, out_features=512, bias=True)
      )
      (t_encoder): TransformerEncoder(
        (layers): ModuleList(
          (0): TransformerEncoderLayer(
            (self_attn): MultiheadAttention(
              (out_proj): NonDynamicallyQuantizableLinear(in_features=512, out_features=512, bias=True)
            )
            (linear1): Linear(in_features=512, out_features=512, bias=True)
            (dropout): Dropout(p=0.1, inplace=False)
            (linear2): Linear(in_features=512, out_features=512, bias=True)
            (norm1): LayerNorm((512,), eps=1e-05, elementwise_affine=True)
            (norm2): LayerNorm((512,), eps=1e-05, elementwise_affine=True)
            (dropout1): Dropout(p=0.1, inplace=False)
            (dropout2): Dropout(p=0.1, inplace=False)
          )
        )
      )
      (tl_encoder): ModuleList(
        (0-3): 4 x TransformerEncoder(
          (layers): ModuleList(
            (0): TransformerEncoderLayer(
              (self_attn): MultiheadAttention(
                (out_proj): NonDynamicallyQuantizableLinear(in_features=512, out_features=512, bias=True)
              )
              (linear1): Linear(in_features=512, out_features=512, bias=True)
              (dropout): Dropout(p=0.1, inplace=False)
              (linear2): Linear(in_features=512, out_features=512, bias=True)
              (norm1): LayerNorm((512,), eps=1e-05, elementwise_affine=True)
              (norm2): LayerNorm((512,), eps=1e-05, elementwise_affine=True)
              (dropout1): Dropout(p=0.1, inplace=False)
              (dropout2): Dropout(p=0.1, inplace=False)
            )
          )
        )
      )
      (tl1_encoder): TransformerEncoder(
        (layers): ModuleList(
          (0): TransformerEncoderLayer(
            (self_attn): MultiheadAttention(
              (out_proj): NonDynamicallyQuantizableLinear(in_features=512, out_features=512, bias=True)
            )
            (linear1): Linear(in_features=512, out_features=512, bias=True)
            (dropout): Dropout(p=0.1, inplace=False)
            (linear2): Linear(in_features=512, out_features=512, bias=True)
            (norm1): LayerNorm((512,), eps=1e-05, elementwise_affine=True)
            (norm2): LayerNorm((512,), eps=1e-05, elementwise_affine=True)
            (dropout1): Dropout(p=0.1, inplace=False)
            (dropout2): Dropout(p=0.1, inplace=False)
          )
        )
      )
      (s_encoder): TransformerEncoder(
        (layers): ModuleList(
          (0): TransformerEncoderLayer(
            (self_attn): MultiheadAttention(
              (out_proj): NonDynamicallyQuantizableLinear(in_features=512, out_features=512, bias=True)
            )
            (linear1): Linear(in_features=512, out_features=512, bias=True)
            (dropout): Dropout(p=0.1, inplace=False)
            (linear2): Linear(in_features=512, out_features=512, bias=True)
            (norm1): LayerNorm((512,), eps=1e-05, elementwise_affine=True)
            (norm2): LayerNorm((512,), eps=1e-05, elementwise_affine=True)
            (dropout1): Dropout(p=0.1, inplace=False)
            (dropout2): Dropout(p=0.1, inplace=False)
          )
        )
      )
      (sl_encoder): ModuleList(
        (0-4): 5 x TransformerEncoder(
          (layers): ModuleList(
            (0): TransformerEncoderLayer(
              (self_attn): MultiheadAttention(
                (out_proj): NonDynamicallyQuantizableLinear(in_features=512, out_features=512, bias=True)
              )
              (linear1): Linear(in_features=512, out_features=512, bias=True)
              (dropout): Dropout(p=0.1, inplace=False)
              (linear2): Linear(in_features=512, out_features=512, bias=True)
              (norm1): LayerNorm((512,), eps=1e-05, elementwise_affine=True)
              (norm2): LayerNorm((512,), eps=1e-05, elementwise_affine=True)
              (dropout1): Dropout(p=0.1, inplace=False)
              (dropout2): Dropout(p=0.1, inplace=False)
            )
          )
        )
      )
      (sl1_encoder): TransformerEncoder(
        (layers): ModuleList(
          (0): TransformerEncoderLayer(
            (self_attn): MultiheadAttention(
              (out_proj): NonDynamicallyQuantizableLinear(in_features=512, out_features=512, bias=True)
            )
            (linear1): Linear(in_features=512, out_features=512, bias=True)
            (dropout): Dropout(p=0.1, inplace=False)
            (linear2): Linear(in_features=512, out_features=512, bias=True)
            (norm1): LayerNorm((512,), eps=1e-05, elementwise_affine=True)
            (norm2): LayerNorm((512,), eps=1e-05, elementwise_affine=True)
            (dropout1): Dropout(p=0.1, inplace=False)
            (dropout2): Dropout(p=0.1, inplace=False)
          )
        )
      )
    )
    (t_proj): Sequential(
      (0): Linear(in_features=512, out_features=512, bias=True)
      (1): ReLU(inplace=True)
      (2): Linear(in_features=512, out_features=128, bias=True)
    )
    (s_proj): Sequential(
      (0): Linear(in_features=512, out_features=512, bias=True)
      (1): ReLU(inplace=True)
      (2): Linear(in_features=512, out_features=128, bias=True)
    )
    (sl_proj): Sequential(
      (0): Linear(in_features=512, out_features=512, bias=True)
      (1): ReLU(inplace=True)
      (2): Linear(in_features=512, out_features=128, bias=True)
    )
    (tl_proj): Sequential(
      (0): Linear(in_features=512, out_features=512, bias=True)
      (1): ReLU(inplace=True)
      (2): Linear(in_features=512, out_features=128, bias=True)
    )
    (sd_proj): Sequential(
      (0): Linear(in_features=1024, out_features=512, bias=True)
      (1): ReLU(inplace=True)
      (2): Linear(in_features=512, out_features=128, bias=True)
    )
    (td_proj): Sequential(
      (0): Linear(in_features=1024, out_features=512, bias=True)
      (1): ReLU(inplace=True)
      (2): Linear(in_features=512, out_features=128, bias=True)
    )
  )
  (encoder_k): PretrainingEncoder(
    (st_encoder): STEncoder(
      (gcn): Model(
        (data_bn): BatchNorm1d(150, eps=1e-05, momentum=0.1, affine=True, track_running_stats=True)
        (l1): TCN_GCN_unit(
          (gcn1): unit_gcn(
            (convs): ModuleList(
              (0-2): 3 x CTRGC(
                (conv1): Conv2d(3, 8, kernel_size=(1, 1), stride=(1, 1))
                (conv2): Conv2d(3, 8, kernel_size=(1, 1), stride=(1, 1))
                (conv3): Conv2d(3, 64, kernel_size=(1, 1), stride=(1, 1))
                (conv4): Conv2d(8, 64, kernel_size=(1, 1), stride=(1, 1))
                (tanh): Tanh()
              )
            )
            (down): Sequential(
              (0): Conv2d(3, 64, kernel_size=(1, 1), stride=(1, 1))
              (1): BatchNorm2d(64, eps=1e-05, momentum=0.1, affine=True, track_running_stats=True)
            )
            (bn): BatchNorm2d(64, eps=1e-05, momentum=0.1, affine=True, track_running_stats=True)
            (soft): Softmax(dim=-2)
            (relu): ReLU(inplace=True)
          )
          (tcn1): MultiScale_TemporalConv(
            (branches): ModuleList(
              (0): Sequential(
                (0): Conv2d(64, 16, kernel_size=(1, 1), stride=(1, 1))
                (1): BatchNorm2d(16, eps=1e-05, momentum=0.1, affine=True, track_running_stats=True)
                (2): ReLU(inplace=True)
                (3): TemporalConv(
                  (conv): Conv2d(16, 16, kernel_size=(5, 1), stride=(1, 1), padding=(2, 0))
                  (bn): BatchNorm2d(16, eps=1e-05, momentum=0.1, affine=True, track_running_stats=True)
                )
              )
              (1): Sequential(
                (0): Conv2d(64, 16, kernel_size=(1, 1), stride=(1, 1))
                (1): BatchNorm2d(16, eps=1e-05, momentum=0.1, affine=True, track_running_stats=True)
                (2): ReLU(inplace=True)
                (3): TemporalConv(
                  (conv): Conv2d(16, 16, kernel_size=(5, 1), stride=(1, 1), padding=(4, 0), dilation=(2, 1))
                  (bn): BatchNorm2d(16, eps=1e-05, momentum=0.1, affine=True, track_running_stats=True)
                )
              )
              (2): Sequential(
                (0): Conv2d(64, 16, kernel_size=(1, 1), stride=(1, 1))
                (1): BatchNorm2d(16, eps=1e-05, momentum=0.1, affine=True, track_running_stats=True)
                (2): ReLU(inplace=True)
                (3): MaxPool2d(kernel_size=(3, 1), stride=(1, 1), padding=(1, 0), dilation=1, ceil_mode=False)
                (4): BatchNorm2d(16, eps=1e-05, momentum=0.1, affine=True, track_running_stats=True)
              )
              (3): Sequential(
                (0): Conv2d(64, 16, kernel_size=(1, 1), stride=(1, 1))
                (1): BatchNorm2d(16, eps=1e-05, momentum=0.1, affine=True, track_running_stats=True)
              )
            )
          )
          (relu): ReLU(inplace=True)
          (residual): unit_tcn(
            (conv): Conv2d(3, 64, kernel_size=(1, 1), stride=(1, 1))
            (bn): BatchNorm2d(64, eps=1e-05, momentum=0.1, affine=True, track_running_stats=True)
            (relu): ReLU(inplace=True)
          )
        )
      )
      (t_embedding): Sequential(
        (0): Linear(in_features=3200, out_features=512, bias=True)
        (1): LayerNorm((512,), eps=1e-05, elementwise_affine=True)
        (2): ReLU(inplace=True)
        (3): Linear(in_features=512, out_features=512, bias=True)
      )
      (s_embedding): Sequential(
        (0): Linear(in_features=4096, out_features=512, bias=True)
        (1): LayerNorm((512,), eps=1e-05, elementwise_affine=True)
        (2): ReLU(inplace=True)
        (3): Linear(in_features=512, out_features=512, bias=True)
      )
      (sam): SAM(
        (linear): Linear(in_features=1024, out_features=512, bias=True)
      )
      (t_encoder): TransformerEncoder(
        (layers): ModuleList(
          (0): TransformerEncoderLayer(
            (self_attn): MultiheadAttention(
              (out_proj): NonDynamicallyQuantizableLinear(in_features=512, out_features=512, bias=True)
            )
            (linear1): Linear(in_features=512, out_features=512, bias=True)
            (dropout): Dropout(p=0.1, inplace=False)
            (linear2): Linear(in_features=512, out_features=512, bias=True)
            (norm1): LayerNorm((512,), eps=1e-05, elementwise_affine=True)
            (norm2): LayerNorm((512,), eps=1e-05, elementwise_affine=True)
            (dropout1): Dropout(p=0.1, inplace=False)
            (dropout2): Dropout(p=0.1, inplace=False)
          )
        )
      )
      (tl_encoder): ModuleList(
        (0-3): 4 x TransformerEncoder(
          (layers): ModuleList(
            (0): TransformerEncoderLayer(
              (self_attn): MultiheadAttention(
                (out_proj): NonDynamicallyQuantizableLinear(in_features=512, out_features=512, bias=True)
              )
              (linear1): Linear(in_features=512, out_features=512, bias=True)
              (dropout): Dropout(p=0.1, inplace=False)
              (linear2): Linear(in_features=512, out_features=512, bias=True)
              (norm1): LayerNorm((512,), eps=1e-05, elementwise_affine=True)
              (norm2): LayerNorm((512,), eps=1e-05, elementwise_affine=True)
              (dropout1): Dropout(p=0.1, inplace=False)
              (dropout2): Dropout(p=0.1, inplace=False)
            )
          )
        )
      )
      (tl1_encoder): TransformerEncoder(
        (layers): ModuleList(
          (0): TransformerEncoderLayer(
            (self_attn): MultiheadAttention(
              (out_proj): NonDynamicallyQuantizableLinear(in_features=512, out_features=512, bias=True)
            )
            (linear1): Linear(in_features=512, out_features=512, bias=True)
            (dropout): Dropout(p=0.1, inplace=False)
            (linear2): Linear(in_features=512, out_features=512, bias=True)
            (norm1): LayerNorm((512,), eps=1e-05, elementwise_affine=True)
            (norm2): LayerNorm((512,), eps=1e-05, elementwise_affine=True)
            (dropout1): Dropout(p=0.1, inplace=False)
            (dropout2): Dropout(p=0.1, inplace=False)
          )
        )
      )
      (s_encoder): TransformerEncoder(
        (layers): ModuleList(
          (0): TransformerEncoderLayer(
            (self_attn): MultiheadAttention(
              (out_proj): NonDynamicallyQuantizableLinear(in_features=512, out_features=512, bias=True)
            )
            (linear1): Linear(in_features=512, out_features=512, bias=True)
            (dropout): Dropout(p=0.1, inplace=False)
            (linear2): Linear(in_features=512, out_features=512, bias=True)
            (norm1): LayerNorm((512,), eps=1e-05, elementwise_affine=True)
            (norm2): LayerNorm((512,), eps=1e-05, elementwise_affine=True)
            (dropout1): Dropout(p=0.1, inplace=False)
            (dropout2): Dropout(p=0.1, inplace=False)
          )
        )
      )
      (sl_encoder): ModuleList(
        (0-4): 5 x TransformerEncoder(
          (layers): ModuleList(
            (0): TransformerEncoderLayer(
              (self_attn): MultiheadAttention(
                (out_proj): NonDynamicallyQuantizableLinear(in_features=512, out_features=512, bias=True)
              )
              (linear1): Linear(in_features=512, out_features=512, bias=True)
              (dropout): Dropout(p=0.1, inplace=False)
              (linear2): Linear(in_features=512, out_features=512, bias=True)
              (norm1): LayerNorm((512,), eps=1e-05, elementwise_affine=True)
              (norm2): LayerNorm((512,), eps=1e-05, elementwise_affine=True)
              (dropout1): Dropout(p=0.1, inplace=False)
              (dropout2): Dropout(p=0.1, inplace=False)
            )
          )
        )
      )
      (sl1_encoder): TransformerEncoder(
        (layers): ModuleList(
          (0): TransformerEncoderLayer(
            (self_attn): MultiheadAttention(
              (out_proj): NonDynamicallyQuantizableLinear(in_features=512, out_features=512, bias=True)
            )
            (linear1): Linear(in_features=512, out_features=512, bias=True)
            (dropout): Dropout(p=0.1, inplace=False)
            (linear2): Linear(in_features=512, out_features=512, bias=True)
            (norm1): LayerNorm((512,), eps=1e-05, elementwise_affine=True)
            (norm2): LayerNorm((512,), eps=1e-05, elementwise_affine=True)
            (dropout1): Dropout(p=0.1, inplace=False)
            (dropout2): Dropout(p=0.1, inplace=False)
          )
        )
      )
    )
    (t_proj): Sequential(
      (0): Linear(in_features=512, out_features=512, bias=True)
      (1): ReLU(inplace=True)
      (2): Linear(in_features=512, out_features=128, bias=True)
    )
    (s_proj): Sequential(
      (0): Linear(in_features=512, out_features=512, bias=True)
      (1): ReLU(inplace=True)
      (2): Linear(in_features=512, out_features=128, bias=True)
    )
    (sl_proj): Sequential(
      (0): Linear(in_features=512, out_features=512, bias=True)
      (1): ReLU(inplace=True)
      (2): Linear(in_features=512, out_features=128, bias=True)
    )
    (tl_proj): Sequential(
      (0): Linear(in_features=512, out_features=512, bias=True)
      (1): ReLU(inplace=True)
      (2): Linear(in_features=512, out_features=128, bias=True)
    )
    (sd_proj): Sequential(
      (0): Linear(in_features=1024, out_features=512, bias=True)
      (1): ReLU(inplace=True)
      (2): Linear(in_features=512, out_features=128, bias=True)
    )
    (td_proj): Sequential(
      (0): Linear(in_features=1024, out_features=512, bias=True)
      (1): ReLU(inplace=True)
      (2): Linear(in_features=512, out_features=128, bias=True)
    )
  )
)
[INFO] Register count_normalization() for <class 'torch.nn.modules.batchnorm.BatchNorm1d'>.
[INFO] Register count_convNd() for <class 'torch.nn.modules.conv.Conv2d'>.
[INFO] Register count_normalization() for <class 'torch.nn.modules.batchnorm.BatchNorm2d'>.
[INFO] Register zero_ops() for <class 'torch.nn.modules.container.Sequential'>.
[INFO] Register count_softmax() for <class 'torch.nn.modules.activation.Softmax'>.
…
Epoch: [0] Lr_rate [0.01][ 10/630]	Time  0.225 ( 0.306)	Loss 3.8929e+01 (3.7029e+01)	Acc@1   0.00 (  0.85)
Epoch: [0] Lr_rate [0.01][ 20/630]	Time  0.213 ( 0.258)	Loss 4.3168e+01 (3.9157e+01)	Acc@1   0.00 (  0.45)
=> creating model
 moco parameters 2048 0.999 0.2
weights initialization finished!
weights initialization finished!
options {'data_path': './data/NTU-RGB-D-60-AGCN/xsub/train_data_joint.npy', 'num_frame_path': './data/NTU-RGB-D-60-AGCN/xsub/train_num_frame.npy', 'l_ratio': [0.1, 1], 'input_size': 64, 'input_representation': 'joint'}
ST_Net(
  (encoder_q): PretrainingEncoder(
    (st_encoder): STEncoder(
      (gcn): Model(
        (data_bn): BatchNorm1d(150, eps=1e-05, momentum=0.1, affine=True, track_running_stats=True)
        (l1): TCN_GCN_unit(
          (gcn1): unit_gcn(
            (convs): ModuleList(
              (0-2): 3 x CTRGC(
                (conv1): Conv2d(3, 8, kernel_size=(1, 1), stride=(1, 1))
                (conv2): Conv2d(3, 8, kernel_size=(1, 1), stride=(1, 1))
                (conv3): Conv2d(3, 64, kernel_size=(1, 1), stride=(1, 1))
                (conv4): Conv2d(8, 64, kernel_size=(1, 1), stride=(1, 1))
                (tanh): Tanh()
              )
            )
            (down): Sequential(
              (0): Conv2d(3, 64, kernel_size=(1, 1), stride=(1, 1))
              (1): BatchNorm2d(64, eps=1e-05, momentum=0.1, affine=True, track_running_stats=True)
            )
            (bn): BatchNorm2d(64, eps=1e-05, momentum=0.1, affine=True, track_running_stats=True)
            (soft): Softmax(dim=-2)
            (relu): ReLU(inplace=True)
          )
          (tcn1): MultiScale_TemporalConv(
            (branches): ModuleList(
              (0): Sequential(
                (0): Conv2d(64, 16, kernel_size=(1, 1), stride=(1, 1))
                (1): BatchNorm2d(16, eps=1e-05, momentum=0.1, affine=True, track_running_stats=True)
                (2): ReLU(inplace=True)
                (3): TemporalConv(
                  (conv): Conv2d(16, 16, kernel_size=(5, 1), stride=(1, 1), padding=(2, 0))
                  (bn): BatchNorm2d(16, eps=1e-05, momentum=0.1, affine=True, track_running_stats=True)
                )
              )
              (1): Sequential(
                (0): Conv2d(64, 16, kernel_size=(1, 1), stride=(1, 1))
                (1): BatchNorm2d(16, eps=1e-05, momentum=0.1, affine=True, track_running_stats=True)
                (2): ReLU(inplace=True)
                (3): TemporalConv(
                  (conv): Conv2d(16, 16, kernel_size=(5, 1), stride=(1, 1), padding=(4, 0), dilation=(2, 1))
                  (bn): BatchNorm2d(16, eps=1e-05, momentum=0.1, affine=True, track_running_stats=True)
                )
              )
              (2): Sequential(
                (0): Conv2d(64, 16, kernel_size=(1, 1), stride=(1, 1))
                (1): BatchNorm2d(16, eps=1e-05, momentum=0.1, affine=True, track_running_stats=True)
                (2): ReLU(inplace=True)
                (3): MaxPool2d(kernel_size=(3, 1), stride=(1, 1), padding=(1, 0), dilation=1, ceil_mode=False)
                (4): BatchNorm2d(16, eps=1e-05, momentum=0.1, affine=True, track_running_stats=True)
              )
              (3): Sequential(
                (0): Conv2d(64, 16, kernel_size=(1, 1), stride=(1, 1))
                (1): BatchNorm2d(16, eps=1e-05, momentum=0.1, affine=True, track_running_stats=True)
              )
            )
          )
          (relu): ReLU(inplace=True)
          (residual): unit_tcn(
            (conv): Conv2d(3, 64, kernel_size=(1, 1), stride=(1, 1))
            (bn): BatchNorm2d(64, eps=1e-05, momentum=0.1, affine=True, track_running_stats=True)
            (relu): ReLU(inplace=True)
          )
        )
      )
      (t_embedding): Sequential(
        (0): Linear(in_features=3200, out_features=512, bias=True)
        (1): LayerNorm((512,), eps=1e-05, elementwise_affine=True)
        (2): ReLU(inplace=True)
        (3): Linear(in_features=512, out_features=512, bias=True)
      )
      (s_embedding): Sequential(
        (0): Linear(in_features=4096, out_features=512, bias=True)
        (1): LayerNorm((512,), eps=1e-05, elementwise_affine=True)
        (2): ReLU(inplace=True)
        (3): Linear(in_features=512, out_features=512, bias=True)
      )
      (sam): SAM(
        (linear): Linear(in_features=1024, out_features=512, bias=True)
      )
      (t_encoder): TransformerEncoder(
        (layers): ModuleList(
          (0): TransformerEncoderLayer(
            (self_attn): MultiheadAttention(
              (out_proj): NonDynamicallyQuantizableLinear(in_features=512, out_features=512, bias=True)
            )
            (linear1): Linear(in_features=512, out_features=512, bias=True)
            (dropout): Dropout(p=0.1, inplace=False)
            (linear2): Linear(in_features=512, out_features=512, bias=True)
            (norm1): LayerNorm((512,), eps=1e-05, elementwise_affine=True)
            (norm2): LayerNorm((512,), eps=1e-05, elementwise_affine=True)
            (dropout1): Dropout(p=0.1, inplace=False)
            (dropout2): Dropout(p=0.1, inplace=False)
          )
        )
      )
      (tl_encoder): ModuleList(
        (0-3): 4 x TransformerEncoder(
          (layers): ModuleList(
            (0): TransformerEncoderLayer(
              (self_attn): MultiheadAttention(
                (out_proj): NonDynamicallyQuantizableLinear(in_features=512, out_features=512, bias=True)
              )
              (linear1): Linear(in_features=512, out_features=512, bias=True)
              (dropout): Dropout(p=0.1, inplace=False)
              (linear2): Linear(in_features=512, out_features=512, bias=True)
              (norm1): LayerNorm((512,), eps=1e-05, elementwise_affine=True)
              (norm2): LayerNorm((512,), eps=1e-05, elementwise_affine=True)
              (dropout1): Dropout(p=0.1, inplace=False)
              (dropout2): Dropout(p=0.1, inplace=False)
            )
          )
        )
      )
      (tl1_encoder): TransformerEncoder(
        (layers): ModuleList(
          (0): TransformerEncoderLayer(
            (self_attn): MultiheadAttention(
              (out_proj): NonDynamicallyQuantizableLinear(in_features=512, out_features=512, bias=True)
            )
            (linear1): Linear(in_features=512, out_features=512, bias=True)
            (dropout): Dropout(p=0.1, inplace=False)
            (linear2): Linear(in_features=512, out_features=512, bias=True)
            (norm1): LayerNorm((512,), eps=1e-05, elementwise_affine=True)
            (norm2): LayerNorm((512,), eps=1e-05, elementwise_affine=True)
            (dropout1): Dropout(p=0.1, inplace=False)
            (dropout2): Dropout(p=0.1, inplace=False)
          )
        )
      )
      (s_encoder): TransformerEncoder(
        (layers): ModuleList(
          (0): TransformerEncoderLayer(
            (self_attn): MultiheadAttention(
              (out_proj): NonDynamicallyQuantizableLinear(in_features=512, out_features=512, bias=True)
            )
            (linear1): Linear(in_features=512, out_features=512, bias=True)
            (dropout): Dropout(p=0.1, inplace=False)
            (linear2): Linear(in_features=512, out_features=512, bias=True)
            (norm1): LayerNorm((512,), eps=1e-05, elementwise_affine=True)
            (norm2): LayerNorm((512,), eps=1e-05, elementwise_affine=True)
            (dropout1): Dropout(p=0.1, inplace=False)
            (dropout2): Dropout(p=0.1, inplace=False)
          )
        )
      )
      (sl_encoder): ModuleList(
        (0-4): 5 x TransformerEncoder(
          (layers): ModuleList(
            (0): TransformerEncoderLayer(
              (self_attn): MultiheadAttention(
                (out_proj): NonDynamicallyQuantizableLinear(in_features=512, out_features=512, bias=True)
              )
              (linear1): Linear(in_features=512, out_features=512, bias=True)
              (dropout): Dropout(p=0.1, inplace=False)
              (linear2): Linear(in_features=512, out_features=512, bias=True)
              (norm1): LayerNorm((512,), eps=1e-05, elementwise_affine=True)
              (norm2): LayerNorm((512,), eps=1e-05, elementwise_affine=True)
              (dropout1): Dropout(p=0.1, inplace=False)
              (dropout2): Dropout(p=0.1, inplace=False)
            )
          )
        )
      )
      (sl1_encoder): TransformerEncoder(
        (layers): ModuleList(
          (0): TransformerEncoderLayer(
            (self_attn): MultiheadAttention(
              (out_proj): NonDynamicallyQuantizableLinear(in_features=512, out_features=512, bias=True)
            )
            (linear1): Linear(in_features=512, out_features=512, bias=True)
            (dropout): Dropout(p=0.1, inplace=False)
            (linear2): Linear(in_features=512, out_features=512, bias=True)
            (norm1): LayerNorm((512,), eps=1e-05, elementwise_affine=True)
            (norm2): LayerNorm((512,), eps=1e-05, elementwise_affine=True)
            (dropout1): Dropout(p=0.1, inplace=False)
            (dropout2): Dropout(p=0.1, inplace=False)
          )
        )
      )
    )
    (t_proj): Sequential(
      (0): Linear(in_features=512, out_features=512, bias=True)
      (1): ReLU(inplace=True)
      (2): Linear(in_features=512, out_features=128, bias=True)
    )
    (s_proj): Sequential(
      (0): Linear(in_features=512, out_features=512, bias=True)
      (1): ReLU(inplace=True)
      (2): Linear(in_features=512, out_features=128, bias=True)
    )
    (sl_proj): Sequential(
      (0): Linear(in_features=512, out_features=512, bias=True)
      (1): ReLU(inplace=True)
      (2): Linear(in_features=512, out_features=128, bias=True)
    )
    (tl_proj): Sequential(
      (0): Linear(in_features=512, out_features=512, bias=True)
      (1): ReLU(inplace=True)
      (2): Linear(in_features=512, out_features=128, bias=True)
    )
    (sd_proj): Sequential(
      (0): Linear(in_features=1024, out_features=512, bias=True)
      (1): ReLU(inplace=True)
      (2): Linear(in_features=512, out_features=128, bias=True)
    )
    (td_proj): Sequential(
      (0): Linear(in_features=1024, out_features=512, bias=True)
      (1): ReLU(inplace=True)
      (2): Linear(in_features=512, out_features=128, bias=True)
    )
  )
  (encoder_k): PretrainingEncoder(
    (st_encoder): STEncoder(
      (gcn): Model(
        (data_bn): BatchNorm1d(150, eps=1e-05, momentum=0.1, affine=True, track_running_stats=True)
        (l1): TCN_GCN_unit(
          (gcn1): unit_gcn(
            (convs): ModuleList(
              (0-2): 3 x CTRGC(
                (conv1): Conv2d(3, 8, kernel_size=(1, 1), stride=(1, 1))
                (conv2): Conv2d(3, 8, kernel_size=(1, 1), stride=(1, 1))
                (conv3): Conv2d(3, 64, kernel_size=(1, 1), stride=(1, 1))
                (conv4): Conv2d(8, 64, kernel_size=(1, 1), stride=(1, 1))
                (tanh): Tanh()
              )
            )
            (down): Sequential(
              (0): Conv2d(3, 64, kernel_size=(1, 1), stride=(1, 1))
              (1): BatchNorm2d(64, eps=1e-05, momentum=0.1, affine=True, track_running_stats=True)
            )
            (bn): BatchNorm2d(64, eps=1e-05, momentum=0.1, affine=True, track_running_stats=True)
            (soft): Softmax(dim=-2)
            (relu): ReLU(inplace=True)
          )
          (tcn1): MultiScale_TemporalConv(
            (branches): ModuleList(
              (0): Sequential(
                (0): Conv2d(64, 16, kernel_size=(1, 1), stride=(1, 1))
                (1): BatchNorm2d(16, eps=1e-05, momentum=0.1, affine=True, track_running_stats=True)
                (2): ReLU(inplace=True)
                (3): TemporalConv(
                  (conv): Conv2d(16, 16, kernel_size=(5, 1), stride=(1, 1), padding=(2, 0))
                  (bn): BatchNorm2d(16, eps=1e-05, momentum=0.1, affine=True, track_running_stats=True)
                )
              )
              (1): Sequential(
                (0): Conv2d(64, 16, kernel_size=(1, 1), stride=(1, 1))
                (1): BatchNorm2d(16, eps=1e-05, momentum=0.1, affine=True, track_running_stats=True)
                (2): ReLU(inplace=True)
                (3): TemporalConv(
                  (conv): Conv2d(16, 16, kernel_size=(5, 1), stride=(1, 1), padding=(4, 0), dilation=(2, 1))
                  (bn): BatchNorm2d(16, eps=1e-05, momentum=0.1, affine=True, track_running_stats=True)
                )
              )
              (2): Sequential(
                (0): Conv2d(64, 16, kernel_size=(1, 1), stride=(1, 1))
                (1): BatchNorm2d(16, eps=1e-05, momentum=0.1, affine=True, track_running_stats=True)
                (2): ReLU(inplace=True)
                (3): MaxPool2d(kernel_size=(3, 1), stride=(1, 1), padding=(1, 0), dilation=1, ceil_mode=False)
                (4): BatchNorm2d(16, eps=1e-05, momentum=0.1, affine=True, track_running_stats=True)
              )
              (3): Sequential(
                (0): Conv2d(64, 16, kernel_size=(1, 1), stride=(1, 1))
                (1): BatchNorm2d(16, eps=1e-05, momentum=0.1, affine=True, track_running_stats=True)
              )
            )
          )
          (relu): ReLU(inplace=True)
          (residual): unit_tcn(
            (conv): Conv2d(3, 64, kernel_size=(1, 1), stride=(1, 1))
            (bn): BatchNorm2d(64, eps=1e-05, momentum=0.1, affine=True, track_running_stats=True)
            (relu): ReLU(inplace=True)
          )
        )
      )
      (t_embedding): Sequential(
        (0): Linear(in_features=3200, out_features=512, bias=True)
        (1): LayerNorm((512,), eps=1e-05, elementwise_affine=True)
        (2): ReLU(inplace=True)
        (3): Linear(in_features=512, out_features=512, bias=True)
      )
      (s_embedding): Sequential(
        (0): Linear(in_features=4096, out_features=512, bias=True)
        (1): LayerNorm((512,), eps=1e-05, elementwise_affine=True)
        (2): ReLU(inplace=True)
        (3): Linear(in_features=512, out_features=512, bias=True)
      )
      (sam): SAM(
        (linear): Linear(in_features=1024, out_features=512, bias=True)
      )
      (t_encoder): TransformerEncoder(
        (layers): ModuleList(
          (0): TransformerEncoderLayer(
            (self_attn): MultiheadAttention(
              (out_proj): NonDynamicallyQuantizableLinear(in_features=512, out_features=512, bias=True)
            )
            (linear1): Linear(in_features=512, out_features=512, bias=True)
            (dropout): Dropout(p=0.1, inplace=False)
            (linear2): Linear(in_features=512, out_features=512, bias=True)
            (norm1): LayerNorm((512,), eps=1e-05, elementwise_affine=True)
            (norm2): LayerNorm((512,), eps=1e-05, elementwise_affine=True)
            (dropout1): Dropout(p=0.1, inplace=False)
            (dropout2): Dropout(p=0.1, inplace=False)
          )
        )
      )
      (tl_encoder): ModuleList(
        (0-3): 4 x TransformerEncoder(
          (layers): ModuleList(
            (0): TransformerEncoderLayer(
              (self_attn): MultiheadAttention(
                (out_proj): NonDynamicallyQuantizableLinear(in_features=512, out_features=512, bias=True)
              )
              (linear1): Linear(in_features=512, out_features=512, bias=True)
              (dropout): Dropout(p=0.1, inplace=False)
              (linear2): Linear(in_features=512, out_features=512, bias=True)
              (norm1): LayerNorm((512,), eps=1e-05, elementwise_affine=True)
              (norm2): LayerNorm((512,), eps=1e-05, elementwise_affine=True)
              (dropout1): Dropout(p=0.1, inplace=False)
              (dropout2): Dropout(p=0.1, inplace=False)
            )
          )
        )
      )
      (tl1_encoder): TransformerEncoder(
        (layers): ModuleList(
          (0): TransformerEncoderLayer(
            (self_attn): MultiheadAttention(
              (out_proj): NonDynamicallyQuantizableLinear(in_features=512, out_features=512, bias=True)
            )
            (linear1): Linear(in_features=512, out_features=512, bias=True)
            (dropout): Dropout(p=0.1, inplace=False)
            (linear2): Linear(in_features=512, out_features=512, bias=True)
            (norm1): LayerNorm((512,), eps=1e-05, elementwise_affine=True)
            (norm2): LayerNorm((512,), eps=1e-05, elementwise_affine=True)
            (dropout1): Dropout(p=0.1, inplace=False)
            (dropout2): Dropout(p=0.1, inplace=False)
          )
        )
      )
      (s_encoder): TransformerEncoder(
        (layers): ModuleList(
          (0): TransformerEncoderLayer(
            (self_attn): MultiheadAttention(
              (out_proj): NonDynamicallyQuantizableLinear(in_features=512, out_features=512, bias=True)
            )
            (linear1): Linear(in_features=512, out_features=512, bias=True)
            (dropout): Dropout(p=0.1, inplace=False)
            (linear2): Linear(in_features=512, out_features=512, bias=True)
            (norm1): LayerNorm((512,), eps=1e-05, elementwise_affine=True)
            (norm2): LayerNorm((512,), eps=1e-05, elementwise_affine=True)
            (dropout1): Dropout(p=0.1, inplace=False)
            (dropout2): Dropout(p=0.1, inplace=False)
          )
        )
      )
      (sl_encoder): ModuleList(
        (0-4): 5 x TransformerEncoder(
          (layers): ModuleList(
            (0): TransformerEncoderLayer(
              (self_attn): MultiheadAttention(
                (out_proj): NonDynamicallyQuantizableLinear(in_features=512, out_features=512, bias=True)
              )
              (linear1): Linear(in_features=512, out_features=512, bias=True)
              (dropout): Dropout(p=0.1, inplace=False)
              (linear2): Linear(in_features=512, out_features=512, bias=True)
              (norm1): LayerNorm((512,), eps=1e-05, elementwise_affine=True)
              (norm2): LayerNorm((512,), eps=1e-05, elementwise_affine=True)
              (dropout1): Dropout(p=0.1, inplace=False)
              (dropout2): Dropout(p=0.1, inplace=False)
            )
          )
        )
      )
      (sl1_encoder): TransformerEncoder(
        (layers): ModuleList(
          (0): TransformerEncoderLayer(
            (self_attn): MultiheadAttention(
              (out_proj): NonDynamicallyQuantizableLinear(in_features=512, out_features=512, bias=True)
            )
            (linear1): Linear(in_features=512, out_features=512, bias=True)
            (dropout): Dropout(p=0.1, inplace=False)
            (linear2): Linear(in_features=512, out_features=512, bias=True)
            (norm1): LayerNorm((512,), eps=1e-05, elementwise_affine=True)
            (norm2): LayerNorm((512,), eps=1e-05, elementwise_affine=True)
            (dropout1): Dropout(p=0.1, inplace=False)
            (dropout2): Dropout(p=0.1, inplace=False)
          )
        )
      )
    )
    (t_proj): Sequential(
      (0): Linear(in_features=512, out_features=512, bias=True)
      (1): ReLU(inplace=True)
      (2): Linear(in_features=512, out_features=128, bias=True)
    )
    (s_proj): Sequential(
      (0): Linear(in_features=512, out_features=512, bias=True)
      (1): ReLU(inplace=True)
      (2): Linear(in_features=512, out_features=128, bias=True)
    )
    (sl_proj): Sequential(
      (0): Linear(in_features=512, out_features=512, bias=True)
      (1): ReLU(inplace=True)
      (2): Linear(in_features=512, out_features=128, bias=True)
    )
    (tl_proj): Sequential(
      (0): Linear(in_features=512, out_features=512, bias=True)
      (1): ReLU(inplace=True)
      (2): Linear(in_features=512, out_features=128, bias=True)
    )
    (sd_proj): Sequential(
      (0): Linear(in_features=1024, out_features=512, bias=True)
      (1): ReLU(inplace=True)
      (2): Linear(in_features=512, out_features=128, bias=True)
    )
    (td_proj): Sequential(
      (0): Linear(in_features=1024, out_features=512, bias=True)
      (1): ReLU(inplace=True)
      (2): Linear(in_features=512, out_features=128, bias=True)
    )
  )
)
[INFO] Register count_normalization() for <class 'torch.nn.modules.batchnorm.BatchNorm1d'>.
[INFO] Register count_convNd() for <class 'torch.nn.modules.conv.Conv2d'>.
[INFO] Register count_normalization() for <class 'torch.nn.modules.batchnorm.BatchNorm2d'>.
[INFO] Register zero_ops() for <class 'torch.nn.modules.container.Sequential'>.
[INFO] Register count_softmax() for <class 'torch.nn.modules.activation.Softmax'>.
…
